weights/gen_modelWeights0090/arr_06.npy (npy, 589920 bytes, 1 tensors)

array f4 [128, 128, 3, 3]
0	0xbb16d058	-0.0023012366
1	0xbab543f8	-0.001382946
2	0xba81f7f9	-0.000991582
3	0xbbdc84a1	-0.006729678
4	0xbb957874	-0.0045614783
5	0xbb388e1a	-0.002816087
6	0xbc310dea	-0.01080654
7	0xbc0857b5	-0.008321692
8	0xbbbcb9fd	-0.005759476
9	0x3be33b4c	0.006934559
10	0x3bdd618f	0.0067560147
11	0x3c2fabe7	0.010722137
12	0xbaf9689b	-0.0019028367
13	0x3b2bc147	0.0026207732
14	0x3bee0293	0.0072634905
15	0xbbc88ebc	-0.006120531
16	0xbb273f7e	-0.0025520022
17	0x3b9085dd	0.004410489
18	0xbc518d7c	-0.01279008
19	0xbc5e80af	-0.013580485
20	0x3b8ab493	0.004232952
21	0xbcc75a21	-0.024334969
22	0xbcf39e6f	-0.029738633
23	0xbc621705	-0.013799434
24	0xbcd8d203	-0.026467329
25	0xbd039f8e	-0.032134585
26	0xbcc847d7	-0.024448318
27	0x3d05a519	0.032628153
28	0x3d359c54	0.04433854
29	0x3d14e750	0.03635341
30	0x3c6727a1	0.014108569
31	0x3d2b13f9	0.041767094
32	0x3d1d87a9	0.038459454
33	0x3d5abfd9	0.053405616
34	0x3db4d820	0.08830285
35	0x3d9d0482	0.076668754
36	0xbb25ad93	-0.002528046
37	0xba9ef204	-0.001212657
38	0xbc4cd965	-0.012503003
39	0xbbb6bf29	-0.0055769873
40	0xbb5d5c38	-0.003377689
41	0xbc6e7cea	-0.014556149
42	0x3c1269e2	0.008936377
43	0x3b83e763	0.004025386
44	0xba619f49	-0.0008606804
45	0x3b24b054	0.0025129514
46	0xb9d1f0db	-0.00040043038
47	0x3b0a5227	0.0021106096
48	0x3b2007b7	0.002441866
49	0xbb4f91b2	-0.0031672535
50	0xbb8a5e13	-0.0042226403
51	0x3bc8be21	0.0061261808
52	0x3b7adbc2	0.0038277959
53	0xbad95846	-0.0016582094
54	0xbbaa362a	-0.005194445
55	0xbb3b15ab	-0.002854685
56	0xbb0c73c6	-0.002143131
57	0xbb312c11	-0.0027034322
58	0xbb7f95a7	-0.0038999112
59	0xbb91c34f	-0.0044483314
60	0xba3e10a8	-0.0007250407
61	0xbb3b21b4	-0.0028554024
62	0xbb82c2ad	-0.0039904923
63	0x3a921119	0.0011144012
64	0xbac0de5c	-0.0014714706
65	0xbaae7bca	-0.0013312038
66	0xba5130b9	-0.00079799775
67	0x3a8f82ba	0.0010948994
68	0x3938df9e	0.00017630911
69	0x375e5d2d	1.3253925e-05
70	0x3bc8aa1b	0.006123794
71	0x3bd2b9b7	0.0064308303
72	0x3c687fdc	0.01419064
73	0x3c259d07	0.010108239
74	0x3be36ad4	0.006940225
75	0x3c01ecd9	0.007930004
76	0x3ba39450	0.0049920455
77	0x3ae4c1d1	0.0017452781
78	0x3be9bb93	0.0071329563
79	0x3b9b9717	0.004748236
80	0x3b71a0b6	0.0036869473
81	0x3b3a4dad	0.0028427646
82	0xbaa82770	-0.0012829136
83	0x3bfd800a	0.0077362107
84	0x3c3d1ee8	0.011543013
85	0x3b48ef00	0.0030660033
86	0x3ba8b39d	0.0051483647
87	0x3c59beda	0.013290131
88	0x3ba6965e	0.005083843
89	0x3b20094f	0.002441961
90	0x3a45768e	0.00075326196
91	0xbba29ca6	-0.0049625216
92	0xbbf25592	-0.0073954547
93	0x3a7f9bca	0.00097506924
94	0xbc05d8e5	-0.0081693875
95	0xbbea5ab9	-0.0071519283
96	0x3b18bdc2	0.0023306464
97	0xbbde89b7	-0.006791319
98	0xbbf90f6f	-0.007600717
99	0x3c143e66	0.00904808
100	0xbb32dbc4	-0.0027291635
101	0xbc085f2e	-0.008323474
102	0x3c36b4cd	0.011151505
103	0x39209d52	0.00015317395
104	0xbc50ef6b	-0.012752394
105	0x3c911180	0.01770854
106	0x3c298342	0.010346236
107	0xb8f6e3b1	-0.00011772605
108	0xbc70cc4a	-0.014697144
109	0xbd8b3e27	-0.06798964
110	0xbd9fd7c4	-0.07804826
111	0x3bb38e24	0.005479591
112	0xbd729918	-0.059228033
113	0xbd8ec021	-0.069702394
114	0xbb7b5d53	-0.0038355186
115	0xbd8386df	-0.06422209
116	0xbd7dc280	-0.061953068
117	0xbc181011	-0.009281174
118	0xbc936def	-0.017996756
119	0xbc469e6b	-0.012122731
120	0xbaef166a	-0.0018240933
121	0xbc9412b4	-0.018075325
122	0xbc83bdd1	-0.016081722
123	0x3c13baaf	0.009016677
124	0xbbe937f2	-0.007117265
125	0xbc315811	-0.010824219
126	0x3b114545	0.0022166532
127	0x3aa7b102	0.0012793841
128	0x3befec36	0.0073218597
129	0xb95d3a18	-0.00021097844
130	0xbb814e33	-0.0039460897
131	0x3b60dbcd	0.00343107
132	0x3b11c941	0.00222452
133	0xba98dade	-0.0011661907
134	0x3b1ea5d8	0.0024207737
135	0xbbe6afbb	-0.0070399917
136	0xbc1409d8	-0.00903555
137	0xbc36498e	-0.011125935
138	0xbab35b85	-0.0013683891
139	0xbbc0f54e	-0.0058886176
140	0xbc2cb311	-0.01054074
141	0x3bcc6ca9	0.0062385392
142	0x3c152336	0.009102633
143	0x3baee4e8	0.0053373463
144	0xbb6ff54e	-0.003661472
145	0x3b48ee55	0.0030659635
146	0x3bceaca6	0.0063072024
147	0x3b7a6f67	0.0038213374
148	0x3baa91f7	0.0052053886
149	0x3c2b4848	0.010454245
150	0x3bd9df10	0.0066489056
151	0x3c2cd3ed	0.010548574
152	0x3bc7b3bc	0.006094424
153	0xb81e4af5	-3.7739945e-05
154	0xbb838304	-0.004013421
155	0x3ab601fc	0.001388609
156	0xbb6a0303	-0.0035707362
157	0xbbf13521	-0.00736107
158	0xbc16477c	-0.009172317
159	0x3c278e8a	0.010226855
160	0x3b5700b0	0.0032806806
161	0x3ab5e6fa	0.001387804
162	0xb9ff8ef1	-0.0004874389
163	0xbc030b81	-0.007998348
164	0xbbe4ff30	-0.0069884285
165	0xbb1509fc	-0.0022741547
166	0xbc1e6698	-0.009668015
167	0xbc0c8826	-0.008577382
168	0x3a0fca9c	0.0005485208
169	0xbbbe3dc8	-0.0058057047
170	0xbb8511be	-0.004060953
171	0xbaeb88c1	-0.0017969833
172	0xbc07b4e1	-0.008282871
173	0xbc98ec12	-0.018667255
174	0x3c81174e	0.015758183
175	0x3c38377a	0.011243695
176	0x3ba45e0a	0.005016093
177	0x3b7d0054	0.0038604932
178	0xbbb33a19	-0.0054695723
179	0xbb7905e0	-0.0037997887
180	0x3c80b840	0.015712857
181	0x3c7daa74	0.015482534
182	0x3c8e663e	0.017382737
183	0x3c10de02	0.008841993
184	0x3c5a222d	0.013313812
185	0x3c8b27f1	0.016986819
186	0x3b062dd7	0.00204741
187	0x3bc2fcb7	0.005950536
188	0x3c116ebc	0.008876499
189	0x3ba58292	0.0050509656
190	0xbaace07f	-0.0013189464
191	0x3abbe72e	0.0014335865
192	0xba25b2ff	-0.0006320923
193	0xbc501ad3	-0.012701708
194	0xbc260b89	-0.010134586
195	0x3bf58e1d	0.007493748
196	0xbb61837f	-0.0034410653
197	0xbbe876a9	-0.0070942235
198	0x3ac59024	0.0015072864
199	0xba9dc12c	-0.0012035719
200	0xb94c1805	-0.00019463904
201	0x3b42fbd7	0.002975216
202	0x3b383cfb	0.002811252
203	0x3bf244fe	0.0073934784
204	0x3ae60338	0.0017548567
205	0x3b1a50bb	0.0023546654
206	0x3bf12a0c	0.0073597487
207	0xbb53c45e	-0.003231309
208	0x3a95ce56	0.0011429291
209	0x3b49457e	0.0030711587
210	0x3bdbd6c2	0.0067089507
211	0x3a898c49	0.0010494079
212	0xba5763e5	-0.00082164846
213	0x3c766b6f	0.015040263
214	0x3c45cb5d	0.012072411
215	0x3b5748cc	0.0032849787
216	0x3b9d9cd0	0.0048099533
217	0x3b99d1ab	0.004694184
218	0x3a23899c	0.0006238462
219	0xbb164998	-0.002293205
220	0xbb8fc5bd	-0.004387586
221	0xbb99a1b0	-0.004688464
222	0x3980ada4	0.00024543435
223	0xbb182dd6	-0.002322068
224	0xbb9b6850	-0.0047426596
225	0xbb554936	-0.0032544858
226	0xbb95bd21	-0.004569665
227	0xbc43a870	-0.011942014
228	0x3ad5442a	0.0016270925
229	0x3b8deef9	0.0043314663
230	0x3b925577	0.0044657546
231	0x3b53ad34	0.0032299282
232	0x3a4fbac1	0.0007924252
233	0x39c5f907	0.00037760308
234	0xbb40c7fa	-0.002941607
235	0xbb6da624	-0.0036262358
236	0x3b65cf1c	0.0035066074
237	0xbc195929	-0.009359636
238	0xbc80e516	-0.015734237
239	0xbc49c891	-0.012315885
240	0x3be9ef4b	0.0071391216
241	0xbb8bb648	-0.004263673
242	0x3acec94a	0.0015776542
243	0x3b8678b9	0.0041037467
244	0xbaf777ee	-0.0018880346
245	0xbbc834aa	-0.0061097937
246	0x3c24fff8	0.010070793
247	0x3b99686c	0.0046816375
248	0x3ae58ca5	0.0017513229
249	0x3cd988de	0.026554521
250	0x3c8e2743	0.017352706
251	0x3c4d9d20	0.012549669
252	0xb9c3305f	-0.00037229338
253	0xbab5be4f	-0.001386592
254	0xbb46a659	-0.0030311553
255	0x3a7e7f34	0.0009708286
