weights/gen_modelWeights0090/arr_17.npy (npy, 2128 bytes, 1 tensors)

array f4 [512]
0.010500203 0.022093765 0.0039923787 -0.007710676 0.028241824 -0.018093403 -0.011208562 -0.02113537
0.006587825 -0.014438029 0.04799196 0.038112503 0.003022032 0.001024517 -0.00020278993 0.019253107
-0.003930324 0.013377967 0.028964993 0.038542625 0.019135153 0.0069355806 -0.023339007 0.048682068
0.10102413 0.028949639 0.0009192059 0.004058149 0.019745655 0.030652545 0.015795836 0.034507554
0.009327151 0.046561334 0.027110716 -0.002473886 0.0146127 -0.00036133625 -0.01967518 0.053393528
0.035173435 -0.036224782 0.055241894 -0.0004817332 -0.009884224 0.011179907 -0.012811718 0.026915526
0.04032638 0.014597044 0.0036929718 -0.026480641 0.021802505 0.015038723 0.028602352 0.039636508
0.017392095 0.016719315 0.015801763 0.028418263 0.011362116 0.03528264 0.0055645546 0.058502596
0.0029836586 -0.014346104 0.02149576 0.04982928 0.035024416 0.023741337 0.034251537 0.008751964
0.028318912 0.018254329 0.0060299975 0.004734001 0.036982827 0.016495347 -0.0073338654 0.013502382
0.013118607 0.030739628 0.011912335 -0.015798131 0.04325669 0.017559612 0.023194784 -0.008667199
-0.023684498 0.019480094 -0.0284032 0.04294855 -0.038476035 -0.020274986 0.1004449 0.012545298
0.03934397 0.04754876 0.0053692525 0.014152717 0.018549608 0.0036793202 0.01855219 0.028108086
0.005624544 0.04455695 -0.010760882 -0.046731494 0.014306236 0.038063712 0.020517861 0.0003280993
0.046514057 0.043877266 -0.0030841993 -0.016431358 0.025857462 0.02789035 0.048402056 0.026220601
-0.017216485 0.048079927 0.032136254 0.01845108 -0.005561219 0.02131439 -0.009752276 0.028169071
-0.012500161 0.0058271624 -0.0040024607 0.031887382 0.024252875 -0.0007483587 -0.033586007 -0.0050947587
0.008252173 -0.0071682283 -0.0009443817 0.028434575 0.054665215 -0.0023466584 0.062757805 -0.006075943
0.0015019671 0.009745135 -0.003968423 0.015649866 0.047938593 0.0058624754 0.037927277 0.04102448
0.0010577526 0.0011775923 0.00010827096 -0.0014063241 0.034273002 0.0364908 -0.006212353 -0.021679047
0.059132546 0.008247139 0.029482681 -0.0020038516 0.0023775043 -0.0077820416 -0.016348947 0.03415357
0.0007119178 0.07608634 0.06467897 0.03513656 -0.00531442 -0.0074393484 0.032932367 -0.008625115
0.017730698 0.029508375 0.042012095 -0.01666642 0.127717 0.005807015 0.020986345 0.006845223
0.0073863734 0.012903086 0.00069160236 0.016366074 -0.034716178 0.035610043 0.012709881 0.034728806
-0.0048252903 -0.004445298 0.0039203186 0.005312601 0.012911103 0.018626662 0.001801149 0.020516194
0.012131545 0.03302826 -0.01504384 -0.0184717 -0.018544445 0.014381886 0.015599149 0.09712111
0.007913357 -0.0005526059 0.018834256 0.030679738 -0.016589 0.014517314 0.00908031 0.038393196
0.024701344 -0.008049586 -0.028429177 0.007752068 0.020347323 0.0023679486 0.04981487 0.039139457
-6.299237e-05 -0.018083155 0.00363482 -0.0010437052 0.057595108 0.030549573 0.010563705 0.035581224
0.03679156 -0.0010330089 -0.008238394 0.03821919 -0.008975937 0.00073280174 -0.0052617276 0.026431214
0.037743594 0.015311856 0.012399982 -0.014486486 -0.015369236 0.036397558 0.03247429 0.13000377
0.009194987 0.01217885 0.043393105 0.005500289 0.019361842 0.04680307 0.018608354 -0.013715522
00000000: 0b09 2c3c fcfd b43c 80d2 823b d7a9 fcbb
00000010: 665b e73c 9e38 94bc 1ea4 37bc 1524 adbc
00000020: aede d73b 7c8d 6cbc 3893 443d db1b 1c3d
00000030: 490d 463b 1649 863a 02a4 54b9 b1b8 9d3c
00000040: f3c9 80bb 432f 5b3c fe47 ed3c dfde 1d3d
00000050: 53c1 9c3c de43 e33b 7231 bfbc d966 473d
00000060: bde5 ce3d cb27 ed3c ddf6 703a 39fa 843b
00000070: a4c1 a13c 0c1b fb3c 4566 813c cb57 0d3d
00000080: e8d0 183c 19b7 3e3d 4b17 de3c eb20 22bb
00000090: 1b6a 6f3c bb71 bdb9 d82d a1bc 2cb3 5a3d
000000a0: 0512 103d 7060 14bd 5345 623d 2391 fcb9
000000b0: 71f1 21bc ee2b 373c 3de8 51bc f37d dc3c
000000c0: 462d 253d 7128 6f3c c905 723b eeed d8bc
000000d0: 2b9b b23c fa64 763c 7b4f ea3c e459 223d
000000e0: de79 8e3c f2f6 883c b372 813c 6bcd e83c
000000f0: 2b28 3a3c 8884 103d de56 b63b 6ba0 6f3d
00000100: 7c89 433b ec0b 6bbc e017 b03c c919 4c3d
00000110: c375 0f3d 317d c23c 574b 0c3d 6664 0f3c
00000120: 10fd e73c 1a8a 953c 4997 c53b ae1f 9b3b
00000130: 4e7b 173d 4021 873c ec50 f0bb 1839 5d3c
00000140: 6def 563c acd1 fb3c f42b 433c 156b 81bc
00000150: ed2d 313d 2dd9 8f3c fd02 be3c de00 0ebc
00000160: fe05 c2bc b894 9f3c d4ad e8bc d2ea 2f3d
00000170: 0c99 1dbd ba17 a6bc 0eb6 cd3d cb8a 4d3c
00000180: 2527 213d 7dc2 423d 8ef0 af3b cce0 673c
00000190: 59f5 973c c020 713b c3fa 973c ee42 e63c
000001a0: 184e b83b 5981 363d 694e 30bc 8669 3fbd
000001b0: b464 6a3c b2e8 1b3d 1315 a83c be04 ac39
000001c0: 8685 3e3d a6b8 333d 4720 4abb 0e9b 86bc
000001d0: 07d3 d33c 4e7a e43c 3c41 463d 96cc d63c
000001e0: 9609 8dbc 75ef 443d 4ea1 033d b826 973c
000001f0: e33a b6bb 849b ae3c 03c8 1fbc d3c2 e63c
00000200: 7acd 4cbc c8f1 be3b 1327 83bb 589c 023d
00000210: f7ad c63c 812d 44ba 7b91 09bd eff1 a6bb
00000220: 1f34 073c 75e3 eabb 6290 77ba a0ef e83c
00000230: a2e8 5f3d 65ca 19bb 2a87 803d b418 c7bb
00000240: a7dd c43a 0faa 1f3c 8c09 82bb 2634 803c
00000250: 425b 443d 021a c03b a259 1b3d 4909 283d
00000260: 4aa4 8a3a 7159 9a3a 870f e338 6854 b8ba
00000270: d961 0c3d 6177 153d fe90 cbbb 4298 b1bc
00000280: f834 723d 021f 073c aa85 f13c 0d53 03bb
00000290: e7cf 1b3b 7f00 ffbb 3aee 85bc 9de4 0b3d
000002a0: ff9f 3a3a 28d3 9b3d 6876 843d 5beb 0f3d
000002b0: 9624 aebb c7c5 f3bb 17e4 063d 5b50 0dbc
000002c0: f83f 913c 8cbb f13c e014 2c3d 0488 88bc
000002d0: 3fc8 023e c648 be3b 8eeb ab3c e44d e03b
000002e0: 6409 f23b 7767 533c a64c 353a 2512 863c
000002f0: 8d32 0ebd d6db 113d 1b3d 503c cb3f 0e3d
00000300: 781d 9ebb dda9 91bb 0476 803b 5415 ae3b
00000310: 1789 533c f196 983c 8814 ec3a 9411 a83c
00000320: 63c3 463c a448 073d 707a 76bc f651 97bc
00000330: 85ea 97bc 01a2 6b3c 9393 7f3c 6fe7 c63d
00000340: 06a7 013c c1dc 10ba 4c4a 9a3c 1354 fb3c
00000350: a8e5 87bc 07da 6d3c 95c5 143c 2f42 1d3d
00000360: 795a ca3c 69e2 03bc 4ee4 e8bc 0f05 fe3b
00000370: 6eaf a63c 962f 1b3b ad0a 4c3d b250 203d
00000380: c51a 84b8 2023 94bc 2936 6e3b efcc 88ba
00000390: d9e8 6b3d 1943 fa3c 6413 2d3c 9ebd 113d
000003a0: bfb2 163d 0766 87ba 54fa 06bc ba8b 1c3d
000003b0: cf0f 13bc 7e19 403a 926a acbb 4686 d83c
000003c0: 0799 1a3d 94de 7a3c 4b29 4b3c ba58 6dbc
000003d0: 3fcf 7bbc 9b15 153d c303 053d b51f 053e
000003e0: 92a6 163c cd89 473c f8bc 313d c53b b43b
000003f0: ba9c 9e3c 93b4 3f3d 8c70 983c 12b7 60bc
