weights/gen_modelWeights0090/arr_46.npy (npy, 589920 bytes, 1 tensors)

array f4 [128, 128, 3, 3]
0	0x3cce949f	0.025217352
1	0x3b8a0f23	0.00421323
2	0x3bf4a0db	0.0074654645
3	0x3cb53e7c	0.022124521
4	0x3afc72b4	0.0019260258
5	0xbb8e69fd	-0.004346131
6	0xbc13c93b	-0.009020145
7	0x3c2fe67e	0.010736106
8	0x3bb90737	0.005646612
9	0x3cadbafe	0.021207329
10	0xbc99c615	-0.01877121
11	0x3bfbbc56	0.0076823635
12	0x3a9fd391	0.0012193789
13	0x3bedd817	0.007258426
14	0xbc8a77a9	-0.016902762
15	0xbc7ed518	-0.015553735
16	0xbc506e2a	-0.012721578
17	0xbb320867	-0.0027165653
18	0xbc6c0852	-0.014406281
19	0xbcc51a76	-0.02406047
20	0x3c708eb1	0.014682458
21	0x3cd8940c	0.026437782
22	0x3c8b3819	0.016994523
23	0xbccfcf69	-0.025367456
24	0x3cff9e04	0.031203277
25	0xbc3af2ab	-0.011410396
26	0xbcd5a44a	-0.026079316
27	0x3c6a290c	0.014292013
28	0xbb5faad6	-0.0034128926
29	0x3c9bef78	0.019035086
30	0x3b8f40f1	0.0043717553
31	0x3c068429	0.00821022
32	0x3c91910f	0.017769365
33	0x3c01cbdd	0.00792214
34	0x3c130f46	0.008975809
35	0xbc32bd2e	-0.010909362
36	0x3bfd6e15	0.00773407
37	0xbb3e04ee	-0.0028994638
38	0x3d1387a1	0.036018018
39	0xbc7f9db3	-0.015601563
40	0x3ce5364c	0.027979992
41	0xbcd60cd4	-0.026129164
42	0xbc481f65	-0.012214516
43	0xbc9a2d71	-0.018820496
44	0x3cefca58	0.02927129
45	0xbcd2dc2a	-0.025739748
46	0xbc8d2563	-0.017229741
47	0x3c2bc74f	0.010484531
48	0x3cd0c3ad	0.02548393
49	0x3cda5a43	0.026654368
50	0x3c4c8df5	0.012485017
51	0x3c614d69	0.013751366
52	0x3c8c1849	0.017101424
53	0xbc50d510	-0.012746111
54	0xbc88b151	-0.016686114
55	0x3b9d3e89	0.0047987145
56	0xbbf6efff	-0.007535934
57	0x3b780dae	0.003784995
58	0x3c9c28fd	0.019062513
59	0xbcac1e4b	-0.021010539
60	0x3c32e419	0.0109186405
61	0xbaeb3ec2	-0.001794778
62	0x3cbd6aa7	0.023122145
63	0x3cdda4ff	0.027056215
64	0x3c0f3769	0.008741238
65	0xbc04e312	-0.008110778
66	0x3bc863ce	0.0061154133
67	0x3ca382c5	0.019959817
68	0x3c3e80a3	0.011627349
69	0x3ce059b3	0.027386522
70	0x398347b7	0.000250397
71	0x3ce8c670	0.028414935
72	0x3cb562c5	0.022141824
73	0x3c4ea4e9	0.01261256
74	0xba2231da	-0.0006187238
75	0x3c2f0e74	0.010684598
76	0x3c3bf6b1	0.01147239
77	0xbcad6ca4	-0.021169968
78	0x3974c67e	0.00023343597
79	0x3c5ba7d0	0.013406709
80	0x3cbb475f	0.02286118
81	0x3d27ee0a	0.040998496
82	0x3c94b58a	0.01815297
83	0xbb80506a	-0.003915836
84	0xbc3439eb	-0.011000137
85	0x3d0f2216	0.034944616
86	0xbd12c0d8	-0.03582844
87	0xbcc5ab3c	-0.024129502
88	0x3bd0d237	0.006372716
89	0x3d0a8be6	0.033824824
90	0xbc44f6c4	-0.012021724
91	0x3cc07301	0.023492338
92	0x3c8fb207	0.017540945
93	0xbc02278a	-0.007943997
94	0x3c618410	0.013764396
95	0xbc3a8836	-0.011385014
96	0x3bf072b3	0.007337892
97	0x3ae82e79	0.0017714045
98	0x3ccc5636	0.024943452
99	0xbc35e902	-0.011102917
100	0xbad145b5	-0.0015966209
101	0xbbe74012	-0.0070571983
102	0x3c87c5f5	0.016573885
103	0x3cadceef	0.021216838
104	0x3c0956a4	0.008382473
105	0xbb288fee	-0.0025720554
106	0x3b48d34a	0.0030643516
107	0x3cc76abd	0.024342889
108	0xbb9aff95	-0.004730175
109	0x3c83bb14	0.016080417
110	0x3cb44f76	0.022010546
111	0x3c9f118f	0.019417552
112	0xbcb8aa91	-0.02254227
113	0xbcc275e1	-0.02373785
114	0x3cc99038	0.024604902
115	0xbc80d6a6	-0.015727352
116	0x3cba37ee	0.022731747
117	0xbcfa0940	-0.030521989
118	0x3c4124d1	0.011788563
119	0x3c0cf4cf	0.008603289
120	0x3b40db24	0.0029427493
121	0x3c93b230	0.018029302
122	0x3c46e02d	0.012138409
123	0xbb8b7f48	-0.0042571165
124	0xbc738459	-0.014863097
125	0xbd0104da	-0.031498767
126	0x3a7faabe	0.00097529206
127	0x3c9a5058	0.018837139
128	0x3cb05ef0	0.021529645
129	0x3b449cb7	0.0030000636
130	0xbc84cee4	-0.016211934
131	0x3cc28f23	0.023749894
132	0x3bbb3dc1	0.0057141487
133	0xbbf7e38d	-0.007564968
134	0xbc983b22	-0.018582884
135	0x3cf61081	0.030037167
136	0x3cb571a5	0.022148916
137	0xba3a3a37	-0.00071040116
138	0x3b8ea33e	0.004352956
139	0xb7dba79e	-2.6184887e-05
140	0xbc4665ba	-0.012109214
141	0x3cb8f6dd	0.022578651
142	0x3d080224	0.033205166
143	0x3c8632c7	0.016381634
144	0xbca60b66	-0.020269107
145	0x3ba04644	0.004891189
146	0x3c09129d	0.008366254
147	0xbcc321b0	-0.023819774
148	0xbc078dcd	-0.008273554
149	0x3ca21177	0.019783719
150	0xbc5243f7	-0.012833587
151	0xbc3c09fd	-0.011476991
152	0xbbbfba69	-0.0058510792
153	0x3bf40f5f	0.0074481214
154	0x3bb0833f	0.0053867395
155	0x3cbd8367	0.023133947
156	0x3c9bc99f	0.019017039
157	0x3a84c2e6	0.0010128885
158	0x3bbb6096	0.005718301
159	0x3bb46a9a	0.005505872
160	0x3c1c2b59	0.009531819
161	0xbbc21593	-0.005922982
162	0xbd0911d4	-0.033464268
163	0xbd099f63	-0.03359927
164	0xbc3077da	-0.010770762
165	0xbcb6fd50	-0.022337586
166	0x3a818e8d	0.0009884402
167	0xbccd92d6	-0.02509443
168	0xbcb80357	-0.02246253
169	0xbb302b7a	-0.0026881383
170	0xbbc50239	-0.006012228
171	0xbb852858	-0.0040636472
172	0x3be23052	0.006902733
173	0x3ad43348	0.0016189599
174	0xb9bf6f98	-0.00036513503
175	0x3b395475	0.00282791
176	0x3c8330fc	0.016014569
177	0x3ad40afa	0.0016177588
178	0xba990185	-0.0011673426
179	0xbbcb653b	-0.006207136
180	0xbd2e052f	-0.042485412
181	0xbd0e417a	-0.034730412
182	0xbceb477f	-0.028720615
183	0x3c02b19e	0.007976918
184	0xbcf5b0f7	-0.02999161
185	0x3c57d3ad	0.013173026
186	0x3ceda8c4	0.029011138
187	0x3d12da14	0.035852507
188	0x3cc2c400	0.0237751
189	0xbbb34e0a	-0.0054719495
190	0x3bf07037	0.007337596
191	0xbc773d4b	-0.015090297
192	0x3c273d09	0.010207423
193	0xbc6116fc	-0.01373839
194	0x3c9f5243	0.019448405
195	0x3c1b8dc4	0.009494249
196	0x3abeb221	0.0014548936
197	0xbcc3af3e	-0.023887273
198	0x3ccd72fb	0.025079241
199	0xbc57aa87	-0.0131632155
200	0x3c0ca0e2	0.008583279
201	0x3cb904f3	0.022585368
202	0x3c9206a7	0.017825438
203	0x3bb0fe68	0.0054014213
204	0xbca97cfe	-0.020689484
205	0x3cbfe48e	0.023424413
206	0xbc328e00	-0.010898113
207	0xbca36df0	-0.019949883
208	0x3c2fb7ea	0.010725001
209	0x3c07371c	0.008252885
210	0xbc4bec0f	-0.0124464175
211	0x3bf7a851	0.0075579067
212	0x3c8dced4	0.017310537
213	0xbcc7aeb2	-0.024375293
214	0x3bfa7ff5	0.007644648
215	0x3c7a0a20	0.015261203
216	0xbca5cba8	-0.020238712
217	0x3ccc2db2	0.024924133
218	0x3c329f38	0.0109022185
219	0xba7e1a80	-0.000969328
220	0x3c129a29	0.008947887
221	0xbbfe5229	-0.007761259
222	0xbbc18101	-0.005905271
223	0x3c0dc023	0.008651766
224	0x3c52de5f	0.0128704
225	0xbb0cdc58	-0.002149364
226	0xbca1842e	-0.019716348
227	0xbc88f8da	-0.016720224
228	0xbc85cca6	-0.016332936
229	0xbc346fae	-0.011012955
230	0x3cda1ed7	0.026626034
231	0xbc8d5a64	-0.017255016
232	0x3cc77ec4	0.024352439
233	0x3c90d34b	0.017678877
234	0x3c338d3b	0.010958965
235	0xbc9d01ec	-0.019165955
236	0x3cf876d1	0.030330094
237	0x3cf34b64	0.029699035
238	0x3ca734d4	0.020410933
239	0x3c995b12	0.018720184
240	0xbc50519b	-0.012714769
241	0xbcaafba5	-0.020871947
242	0xbadd1e4f	-0.0016869995
243	0x3b2f365e	0.0026735286
244	0x3c0381c2	0.008026542
245	0xbc8327cd	-0.01601019
246	0xbcb5d06a	-0.022194106
247	0xba2cf1c7	-0.0006597307
248	0xbbce8b8c	-0.0063032564
249	0x3c8d0bc2	0.01721752
250	0xbc82b8bb	-0.015957227
251	0xbbfbd8db	-0.0076857633
252	0x3c33cdf8	0.0109744
253	0xbb7e7fdf	-0.0038833541
254	0xbaa06243	-0.0012236316
255	0xbbb49fa2	-0.005512194
