weights/gen_modelWeights0090/arr_31.npy (npy, 2128 bytes, 1 tensors)

array f4 [512]
8.409939e-05 -0.0009679167 0.00014064217 0.00016799962 0.00031783822 0.00088418624 9.4496965e-05 -0.00038195614
0.00032195068 -0.00053725875 -0.0013163454 2.0681373e-05 -0.00027473024 0.00097459985 -3.57553e-05 -0.00073260115
0.00022678198 -0.0001202175 0.0013287166 0.00017698896 0.00021080168 0.0013410076 -0.00026640124 0.0004759364
2.9580046e-05 1.0707875e-05 -0.00012434743 -7.052402e-05 4.5863977e-05 -0.00036448237 0.0009847838 4.1293446e-05
-3.2730055e-05 0.00046155645 0.000114569244 -5.4216875e-05 -0.00053878536 8.519966e-05 0.0019062448 8.622157e-05
-0.00058745337 0.0014673618 0.0008826927 0.00047408915 0.00010078524 -0.00011572157 0.0001703765 -0.0016589097
0.00027526115 0.00041100764 -0.000925633 -8.632346e-05 -0.00023782832 0.0019731973 0.0012472378 -2.9964176e-05
-2.1830323e-05 0.0006289851 -5.7150643e-05 7.442023e-05 -0.0022666338 8.773054e-05 0.00028277707 0.000289032
-9.7182e-07 0.0010929161 0.0010936044 -0.00015284467 0.00033883593 9.067969e-06 -0.00074772094 1.9413355e-05
8.93384e-05 0.00028560724 0.00012941002 0.00016646642 -3.7873633e-05 2.3945953e-05 0.0002956208 -3.5674675e-05
0.00053891627 0.0009882038 0.001313039 0.00064966566 0.00020644485 0.00040322612 0.0012762588 -0.00018619747
-0.000128974 3.063639e-05 -0.00015589136 -1.0638394e-05 1.8638191e-05 0.0019307676 0.00017553757 0.0010526645
-5.23933e-06 0.000342954 0.00023662357 2.9347977e-06 6.066759e-05 0.0010328882 0.00019761713 0.000813266
0.00025830654 0.00064998184 -0.0010341778 0.00024082432 0.00027721748 -0.00039830062 0.0005619983 0.00066778023
0.0005987093 -0.00016961603 0.0010634139 0.00010568682 -0.0010539595 0.00054021017 0.00061657646 0.00050593395
-0.0003296785 0.0002964922 0.0001223115 0.0013129392 -0.00040893274 0.00013977519 0.0005013297 0.000600735
2.7388016e-05 -8.204618e-06 8.760499e-05 -5.0797746e-05 0.00022307347 9.087629e-05 7.668102e-07 2.1833e-05
0.0001158532 0.0006006303 7.7587145e-05 -1.2618158e-05 -8.2370665e-05 -1.949612e-05 0.0013931551 0.0005888901
0.00015793854 -0.00033226842 0.0003068006 0.00079924066 0.0004095146 -3.9308975e-07 0.00068024674 -1.7933216e-06
0.00023834403 0.0001817003 0.0005972246 -0.00026287464 0.000408156 0.0014863876 0.00039153924 0.0022948748
0.00035437968 -4.8875783e-05 -0.00011732016 -0.001763372 0.00023733191 0.00013555483 0.00176725 -0.000110796485
2.3401708e-05 0.001252588 -4.6358574e-07 -0.0007257188 0.0013864432 0.00071491936 2.9831202e-05 -0.0015423647
9.5457086e-05 -1.7890292e-05 -0.0006308268 8.052504e-05 0.0014331467 0.0006802243 -6.3193336e-05 -3.2610256e-05
-5.5260505e-05 0.00020957945 0.0005577249 0.00039336827 0.0005575285 -0.00036495316 0.00022300315 -0.0008355984
0.00035724745 6.530547e-05 -4.63522e-05 -0.0011402965 0.00048746765 8.222512e-05 0.00056688103 -0.00015376802
0.0012165484 3.8410715e-05 0.00020650541 2.775188e-05 -0.0003578959 0.00036646094 0.0013790154 0.0002663194
-3.1009517e-05 1.2497799e-05 0.00028444707 3.9653973e-05 0.0007489305 0.00032377985 0.0014366189 0.00085501204
0.0006528701 -0.0005400709 0.0008995289 -0.0019702092 0.0015969169 -0.00084094953 0.0007334027 8.323183e-05
-0.00031686388 0.0008327208 0.00025029175 0.0008961648 0.0007912442 0.00024551596 -8.736005e-05 -0.0005909195
-4.890302e-06 6.406002e-05 -0.000103406666 1.4885373e-05 -0.0012806718 0.00013875436 -0.00018293523 0.0005538117
0.0005548309 0.00055632036 0.0011247328 -2.151814e-05 4.4475877e-05 -0.00020859591 7.317597e-05 0.00079015404
0.000585392 0.0001795277 -0.00026620363 4.742946e-07 -0.00020356377 0.00019305882 0.00049505086 0.0008744301
00000000: 845e b038 cabb 7dba 5879 1339 0e29 3039
00000010: 86a3 a639 bcc8 673a ac2c c638 4941 c8b9
00000020: 7dcb a839 d3d6 0cba 3989 acba e97c ad37
00000030: ab09 90b9 4a7c 7f3a f6f7 15b8 080c 40ba
00000040: 53cc 6d39 471d fcb8 5528 ae3a 1d96 3939
00000050: a50a 5d39 c0c4 af3a c5ab 8bb9 1a87 f939
00000060: aa22 f837 f9a5 3337 4263 02b9 4ce6 93b8
00000070: 125e 4038 ff17 bfb9 dc13 813a 8032 2d38
00000080: a147 09b8 0ffd f139 e544 f038 ed66 63b8
00000090: 463d 0dba 38ad b238 f6da f93a dad1 b438
000000a0: 54ff 19ba 7e54 c03a 8164 673a 2b8f f839
000000b0: aa5c d338 8baf f2b8 18a7 3239 c66f d9ba
000000c0: ed50 9039 837c d739 2ea6 72ba 8e08 b5b8
000000d0: 8e61 79b9 c250 013b 5b7a a33a 945b fbb7
000000e0: 4320 b7b7 7ae2 243a 09b5 6fb8 0f12 9c38
000000f0: ce8b 14bb fafb b738 b241 9439 3889 9739
00000100: 7b6f 82b5 2e40 8f3a 4657 8f3a ee44 20b9
00000110: caa5 b139 a122 1837 b402 44ba ddd9 a237
00000120: 305b bb38 8ebd 9539 3db2 0739 7d8d 2e39
00000130: 81da 1eb8 8bdf c837 8dfd 9a39 64a1 15b8
00000140: 0f46 0d3a 9e86 813a 471a ac3a 534e 2a3a
00000150: 1e79 5839 1868 d339 2448 a73a 013e 43b9
00000160: 323d 07b9 937f 0038 c576 23b9 8e7b 32b7
00000170: 3659 9c37 cf11 fd3a 8210 3839 8ff9 893a
00000180: 81cd afb6 82ce b339 281e 7839 71f3 4436
00000190: 5475 7e38 fa61 873a 7237 4f39 5b31 553a
000001a0: 516d 8739 8b63 2a3a 408d 87ba c985 7c39
000001b0: 8057 9139 01d3 d0b9 1153 133a f90d 2f3a
000001c0: b3f2 1c3a f5da 31b9 4062 8b3a 2ea4 dd38
000001d0: 0325 8aba e49c 0d3a bfa1 213a a7a0 043a
000001e0: b3d8 acb9 8272 9b39 be40 0039 ee16 ac3a
000001f0: 0666 d6b9 9e90 1239 ab6b 033a a57a 1d3a
00000200: 51bf e537 91a6 09b7 92b8 b738 aa0f 55b8
00000210: d4e8 6939 d694 be38 ccd6 4d35 0326 b737
00000220: 37f6 f238 9e73 1d3a 48b6 a238 93b2 53b7
00000230: 6abe acb8 998b a3b7 879a b63a bf5f 1a3a
00000240: 4e9c 2539 5034 aeb9 14da a039 2284 513a
00000250: 1fb4 d639 d809 d3b4 9652 323a 10b2 f0b5
00000260: fdeb 7939 ce86 3e39 118f 1c3a 70d2 89b9
00000270: c5fd d539 e4d2 c23a 8247 cd39 9c65 163b
00000280: 09cc b939 f9ff 4cb8 c809 f6b8 f220 e7ba
00000290: 4ddc 7839 b923 0e39 12a3 e73a 695b e8b8
000002a0: c94e c437 e12d a43a bde2 f8b4 2a3e 3eba
000002b0: 50b9 b53a 6d69 3b3a 053e fa37 2c29 caba
000002c0: 2230 c838 1c13 96b7 125e 25ba 8ddf a838
000002d0: 6cd8 bb3a 1451 323a aa86 84b8 ffc6 08b8
000002e0: 84c7 67b8 8ec2 5b39 4934 123a ff3c ce39
000002f0: 1b27 123a 2f57 bfb9 f4d5 6939 0f0c 5bba
00000300: f14c bb39 9bf4 8838 4c6a 42b8 0076 95ba
00000310: cd92 ff39 4670 ac38 be9a 143a ca3c 21b9
00000320: 9774 9f3a 311b 2138 6089 5839 b5cc e837
00000330: f9a3 bbb9 8e21 c039 14c0 b43a c9a0 8b39
00000340: 3710 02b8 a3ad 5137 d721 9539 2152 2638
00000350: e053 443a ffc0 a939 ee4c bc3a e322 603a
00000360: 5f25 2b3a 8b93 0dba 5dce 6b3a a01e 01bb
00000370: a44f d13a 2b73 5cba d241 403a c08c ae38
00000380: c020 a6b9 f24a 5a3a 9739 8339 9aec 6a3a
00000390: 806b 4f3a 98b8 8039 1235 b7b8 f0e7 1aba
000003a0: 6017 a4b6 f657 8638 08dc d8b8 31bc 7937
000003b0: 37dc a7ba 977e 1139 4dd2 3fb9 ad2d 113a
000003c0: 1272 113a 07d6 113a c56b 933a db81 b4b7
000003d0: 9c8b 3a38 8aba 5ab9 0d76 9938 5722 4f3a
000003e0: fe74 193a 9a3f 3c39 3f91 8bb9 8ea2 fe34
000003f0: bc73 55b9 d56f 4a39 4dc6 013a 033a 653a
