weights/gen_modelWeights0090/arr_04.npy (npy, 294992 bytes, 1 tensors)

array f4 [128, 64, 3, 3]
00000000: bcdd 11bc f466 29bc 9b09 27bc 3903 4abc
00000010: 5e47 6ebc bade 40bc 8f24 f6bb bea6 03bc
00000020: b784 f0bb 18a5 b9bb 1881 9f3b 5b4f 493c
00000030: 09d5 acba 80fc ff3b ca7c 803c eeb9 703b
00000040: 8b98 603c 57b6 a23c 27a3 00bc d910 aebb
00000050: d690 e8bb 8b55 8bbb 88d9 e6ba fb05 70bb
00000060: 12c9 a7bb 95c1 2fbb dad8 87bb 2839 dabb
00000070: aa7f d8bb 16aa e2bb b3ff 18bc 19e9 1cbc
00000080: 7d00 12bc d6f9 21bc 6ea7 17bc d467 0abc
00000090: a4a7 b0bb 6bf1 93bb 4c9d a1bb 5720 98bb
000000a0: 1245 78bb e160 8bbb 58b6 a2bb fb10 83bb
000000b0: 0c3e 8cbb b51d 10bc 7198 53bc 723d 96bc
000000c0: e17a e7ba 06e3 12bc 7f8b 58bc 35e0 123c
000000d0: eeae 4a3b 4d35 96bb 896f eabb 6df1 41bb
000000e0: d5ff 913b 9d70 70bc 33f1 2cbc f160 94bb
000000f0: 49d9 a5bc fde2 8abc c2a0 29bc 7608 9cbc
00000100: a04b 96bc 127e 99bc e39e 9dbc b32d 96bc
00000110: 51ec 96bc 1a18 9abc fbe8 91bc e414 92bc
00000120: 67fc 2d3b bac8 013b 2a70 cc3a aa4e e939
00000130: e50a e439 46e2 1db9 e3b3 8b39 737d fe38
00000140: 7326 0039 9362 393c c489 203c c503 063c
00000150: 8478 5f3b 0bab 1f3b 79f0 8d3a 8732 9ebb
00000160: 8b47 b0bb bff6 cdbb 0cfa 86bc de98 89bc
00000170: da73 63bc 4b37 8dbc fd6a 9bbc 86ee 86bc
00000180: 2880 76bc 674a 81bc be94 30bc 9a6d 8f3b
00000190: 4a9b 4f3b ed06 143b 4443 c23a 71ce 76b9
000001a0: 968f bdba 033d 05ba 43a3 1fbb 4b5f 8cbb
000001b0: 65da 933c 0cf0 c73b b3bc 0bbc dee9 6f3c
000001c0: 5ee2 a13a e16d 41bc dba6 663c 6900 753a
000001d0: c830 70bc 1cfb cfbb 5aa1 94bc f006 e7bc
000001e0: d1f6 223a 834f 5dbc 400d c1bc 8957 2c3c
000001f0: 325b 86bb a1bd 77bc 872e 903c 02b9 7c3c
00000200: 34a5 643c 4fa9 2a3c 4254 003c 4576 e13b
00000210: 1f44 703b a068 c53a 90fc e537 5f14 d3ba
00000220: 4e6d 57ba 72f5 99ba 11c5 05bb bdf8 bfba
00000230: f9e8 98ba 1819 dfba 5ba2 93ba d170 e3b9
00000240: 185c 833b c971 3d3b 23d7 4d3b 8992 bd3a
00000250: 50d7 9e3a 0458 8e3a 764d 903b 6027 993b
00000260: c82c 8b3b e489 b8bc b30d c0bc fa4f c7bc
00000270: 489f 5fbc b02f 8fbc 6b1c 88bc 0040 303b
00000280: 7360 dbb9 f95e 14bb 41d9 943b 88de b03b
00000290: 7b82 923b 2ef0 7c3b fef1 9d3b bb98 5e3b
000002a0: ab62 0b3b 907b 033b aa72 943a ae09 33bc
000002b0: 1216 0fbc e302 13bc cdfa 4dbc f33c 29bc
000002c0: 87ae 22bc ee1e 31bc d7aa 0cbc 79f2 0fbc
000002d0: ff9e 0ebc 614f 34bc b4c8 15bc 185c 3dbc
000002e0: 0dfb 72bc a108 4abc 3187 8ebb ffaa a8bb
000002f0: 1ca9 abbb 068c 6a3c 0b00 1e3c 16d1 803b
00000300: 06bd a93b 3b8a 2c39 88f2 afbb 1cc8 89bb
00000310: 4b30 03bc eb03 5cbc 9cc5 07b9 1bb5 7cb9
00000320: a6e3 9aba 1342 5eba 86b1 f0b9 5285 86ba
00000330: 1049 8f3a 6138 c83a d86c 733a 1b3e d83a
00000340: 631d 873b af78 ff3b 2286 84bb 651d edba
00000350: 4fef ea3a 4a61 05bc 6339 cdbb bbaa 3abb
00000360: 1cf6 afba c6cc 9f3a 2b84 83ba 2991 e73a
00000370: 67ce 8a3b 94fa 083b 68fb e63a c604 863b
00000380: b6a0 cd3a 4dbf 22bb 188d 1dbb b20f 27bb
00000390: 7e03 15bb a9b5 0abb ee0c 12bb c9c4 0dbb
000003a0: dbf8 05bb 44d7 07bb a70c 4b3b 1373 403b
000003b0: 1ee3 e33b 9e77 36bc f09c 35bc 78e1 ffbb
000003c0: 89b3 babc 8496 b0bc 2d04 99bc a4b0 6abc
000003d0: d999 3abc d0e5 5cbc 2803 3ebc df23 09bc
000003e0: 8e62 2cbc ad58 51bc fe98 1fbc 86ac 38bc
000003f0: ac5c b8bc 9346 56bc 2f94 f9ba f483 a7bc
-0.008902963 -0.010339487 -0.010195161 -0.01232987 -0.014543382 -0.011771852 -0.0075116823 -0.00803536
-0.0073400396 -0.0056654327 0.004867684 0.012286986 -0.0013186048 0.007812083 0.015684504 0.0036731916
0.013708244 0.019862337 -0.007851399 -0.005312067 -0.007097344 -0.004252141 -0.0017612437 -0.0036624658
-0.005120405 -0.0026818265 -0.004145724 -0.0066596456 -0.0066070156 -0.0069172485 -0.009338307 -0.009577059
-0.008911249 -0.009886226 -0.009256227 -0.008447606 -0.005391078 -0.0045148632 -0.0049320813 -0.004642527
-0.0037882966 -0.004253492 -0.0049655847 -0.003999827 -0.0042798575 -0.008796145 -0.012914763 -0.018339846
-0.0017660522 -0.008965259 -0.013216852 0.008964588 0.003092702 -0.0045839907 -0.0071544093 -0.0029593364
0.0044555464 -0.014675287 -0.010555553 -0.004528158 -0.020245211 -0.01695394 -0.010353269 -0.019047003
-0.018346608 -0.018736873 -0.019240802 -0.018332338 -0.018423231 -0.01881032 -0.017811289 -0.017832227
0.0026548149 0.001980348 0.0015597392 0.00044499832 0.00043495666 -0.0001505698 0.00026646172 0.000121350306
0.00012221355 0.011315006 0.009798471 0.00817961 0.0034098933 0.0024363424 0.0010829113 -0.0048278007
-0.0053796223 -0.006285518 -0.016476654 -0.016796526 -0.013882602 -0.01723828 -0.018971914 -0.016471159
-0.015045203 -0.015782548 -0.01077765 0.004377079 0.0031678253 0.0022587136 0.0014821072 -0.00023537294
-0.0014462348 -0.0005082639 -0.0024358786 -0.0042838207 0.018048475 0.006101614 -0.008528876 0.014643161
0.0012350788 -0.011805982 0.014077867 0.00093460694 -0.014660068 -0.0063470732 -0.018143345 -0.02820155
0.0006216588 -0.013507727 -0.023565888 0.010518917 -0.004100227 -0.015120895 0.017600311 0.015424969
0.013955403 0.010416343 0.007832589 0.006880554 0.0036661697 0.0015061088 2.7416536e-05 -0.0016104094
-0.0008217887 -0.0011746122 -0.002041165 -0.0014646273 -0.0011666111 -0.0017021028 -0.0011263596 -0.0004338087
0.004008781 0.0028906933 0.003140875 0.0014463227 0.0012118611 0.0010859971 0.0044037653 0.0046738833
0.0042472817 -0.022526689 -0.023444032 -0.024330128 -0.013648815 -0.017478794 -0.016615113 0.0026893616
-0.00041842795 -0.0022639616 0.0045425002 0.0053976215 0.004471121 0.0038595307 0.0048201075 0.0033965546
0.0021268527 0.0020062663 0.0011325676 -0.010927601 -0.008733289 -0.008972856 -0.012572003 -0.010329473
-0.009929306 -0.010810597 -0.008585653 -0.008785837 -0.0087049 -0.0110052535 -0.00914209 -0.011557601
-0.014830363 -0.012331159 -0.004349612 -0.0051473374 -0.0052386653 0.014315611 0.009643565 0.003931175
0.005180004 0.00016454693 -0.005369488 -0.004204763 -0.008007119 -0.0134286685 -0.00012948219 -0.0002410006
-0.0011817112 -0.0008478474 -0.00045908632 -0.0010263121 0.0010931809 0.0015275591 0.00092859333 0.0016498001
0.004123376 0.007796369 -0.00404431 -0.0018090425 0.0017924103 -0.008140871 -0.0062629445 -0.002848311
-0.0013424787 0.0012191765 -0.0010033896 0.0017667162 0.004236031 0.002090131 0.0017622532 0.0040899245
0.0015688154 -0.0024833262 -0.0024040397 -0.0025491533 -0.0022737677 -0.0021165407 -0.0022285539 -0.0021632186
-0.002044252 -0.0020727674 0.0030982883 0.0029365465 0.0069545647 -0.011136917 -0.01108478 -0.0078088604
-0.022790687 -0.021556146 -0.018678749 -0.014324341 -0.011389219 -0.013482526 -0.011597432 -0.008370369
-0.010521544 -0.01277749 -0.009741066 -0.011271602 -0.022505127 -0.01307835 -0.0019041355 -0.020448662
