weights/gen_modelWeights0090/arr_21.npy (npy, 2128 bytes, 1 tensors)

array f4 [512]
000000 91 3a 6a 3d 80 e1 21 bd 80 b2 d1 3d d6 7d 85 3d
       0.05718476 -0.039521694 0.10239124 0.06518142
000010 50 d8 31 bd 2b a3 2f bc ae c9 43 3d 24 3a 04 3d
       -0.043419182 -0.010720055 0.04779976 0.03228201
000020 ce 89 6b 3e 98 7a d9 3d f4 a8 b2 3d e5 32 18 3d
       0.23001787 0.10619086 0.087236315 0.03715791
000030 02 fc 25 be 54 06 83 3d e4 d3 2a 3e 27 74 54 bc
       -0.16209415 0.06397691 0.16682392 -0.012967146
000040 ec 4f 0a 3d df 20 bb bd 55 ae 1a 3e 27 59 99 3d
       0.033767626 -0.09137129 0.15105565 0.074877076
000050 b3 40 a2 bc 70 73 9c bb d5 ca 4a bd 1e 8f 28 3d
       -0.019806242 -0.0047745034 -0.049509842 0.041152112
000060 44 43 53 3e 3c c4 6a 3d 1b 9e 0c bd 77 77 bc bd
       0.20631129 0.05731605 -0.03433047 -0.092024736
000070 df df e5 bd 94 ae 76 bb 17 e7 1e 3e a3 99 9b 3d
       -0.11224341 -0.0037640678 0.15517841 0.07597663
000080 7e 2c 35 3e 46 0d cb 3b 8f 8c a6 3d 26 1a a9 3c
       0.17692754 0.0061966507 0.08132278 0.020642351
000090 41 cb 85 3d f8 23 3b 3c 81 15 1f bd 1f cb eb 3c
       0.06532908 0.01142215 -0.038838867 0.02878338
0000a0 89 cf 84 3c 75 dd ac bc bf 74 2b bd 7e 58 04 3e
       0.016212242 -0.021101693 -0.041859385 0.12924382
0000b0 ef 3a 03 3e 41 0a f1 3d 8a 1f 6c 3d ba 11 01 3c
       0.1281545 0.11769534 0.057647265 0.0078777615
0000c0 fb cb cb bb ae 8c 24 3d d7 f6 5f 3d 99 a7 99 3d
       -0.0062193847 0.040173225 0.054678764 0.0750267
0000d0 88 f3 a4 bd 71 d8 7d 3e 7e 37 6c bd ab 7c d0 3d
       -0.080542624 0.24789597 -0.05767011 0.101800285
0000e0 0b d0 9c 3b d2 0c b3 bd 99 90 bd bb 92 61 c6 3d
       0.004785543 -0.0874268 -0.0057850596 0.09686579
0000f0 2c 62 c6 3c ee 1f 6f 3e ce 9b c1 3b 3c e2 70 bd
       0.024216734 0.23352024 0.005908466 -0.058809504
000100 70 56 7b 3a 23 e0 8d 3d bb 94 ee 3b d6 1e e1 3b
       0.00095877703 0.06927516 0.0072809136 0.006870131
000110 41 f0 50 be fd cd dd bc 9a 2b 3f 3d 6a b8 4b bd
       -0.2040415 -0.027075762 0.04667244 -0.049736418
000120 ce aa 86 bd 73 0a b3 bd 23 82 51 3d 34 0d df 3d
       -0.06575547 -0.087422274 0.0511495 0.1089119
000130 cc 42 1f 3d a6 32 da 3c ba 64 6c bd 90 1d 21 bc
       0.03888206 0.02663548 -0.057713248 -0.009833708
000140 8c 1b ec 3d 57 2c d0 3b f5 28 c3 3c 9b 9c 02 bd
       0.11528692 0.006352942 0.02382324 -0.031887632
000150 64 f5 86 ba d7 99 84 bc 7f ee eb bc ee d1 20 3e
       -0.0010296521 -0.016186638 -0.028800247 0.15705082
000160 97 8d f4 bc 9c dd a1 bc a5 d1 09 3e 51 0d 4d bd
       -0.029852672 -0.019758992 0.1345888 -0.050061528
000170 a1 60 04 3e c1 34 b2 3a 83 ee 83 bd f0 73 50 3e
       0.12927486 0.0013596044 -0.06441977 0.20356727
000180 43 b8 2d 3d 6e 88 48 3e ca 7c 12 3d 25 7a 18 3d
       0.042412054 0.19583294 0.03576354 0.03722586
000190 df fe 9c bd 90 4d 75 3c 08 fd 21 bd 5a 35 ab bd
       -0.076658 0.014972106 -0.03954795 -0.083597854
0001a0 09 61 0f be 03 28 cb bd c9 41 33 bd 8b 67 4c 3d
       -0.1400186 -0.09919741 -0.04376391 0.049903434
0001b0 1b 82 6c 3b e9 a6 97 3c f4 67 03 3d 0f 74 00 bb
       0.003608829 0.018512206 0.03208156 -0.0019600426
0001c0 f7 a2 aa 3d 4b be 1a bb 74 f2 d2 3d 31 be a5 3b
       0.08331864 -0.0023611959 0.103001505 0.005058073
0001d0 5a 17 10 3e 20 2c 50 3a 82 84 9b 3d 69 52 10 bd
       0.14071408 0.00079411454 0.07593633 -0.035234842
0001e0 58 68 6c 3d 89 56 ad bc c7 98 c5 bb d0 b2 36 3d
       0.057716697 -0.021159427 -0.0060301754 0.044604123
0001f0 63 78 05 3b 2b ca 0d bc 00 a3 05 3d fb 5d 12 3e
       0.0020365946 -0.008654158 0.032626152 0.14293663
000200 73 f3 53 3e f6 25 68 be 5e 28 d3 3c 2a 6f e0 3d
       0.20698337 -0.22670731 0.025776085 0.10958703
000210 91 93 ba 3d 52 16 f3 3d ea e7 34 bd d9 79 04 3e
       0.09110177 0.11869492 -0.044166483 0.12937106
000220 4d ac a8 3d d7 d7 a2 3c 77 2a 37 39 a5 8a 39 bd
       0.08235989 0.019878311 0.0001746806 -0.045298237
000230 03 20 41 3e 29 cf fc 3c ce 66 65 bd 1e 0f 16 3c
       0.18859868 0.0308605 -0.056006245 0.009158878
000240 7d 4a da 3a 70 30 5c 3d 85 19 45 3e 7d bd a5 3d
       0.0016654279 0.05375713 0.19248016 0.08092783
000250 e0 91 93 bc 2e 72 7b 3e 45 10 f6 bc 26 b8 8a ba
       -0.018013895 0.24555275 -0.030037055 -0.0010583445
000260 69 e4 bc 3d 4d 14 8e 3a 95 67 37 3e 45 4e 38 3d
       0.09223253 0.001083979 0.17910607 0.04499652
000270 a0 79 e4 bc 82 26 3a 3c c4 59 87 3c 66 34 a1 3c
       -0.027890027 0.01136172 0.016522296 0.019678306
000280 a0 55 05 3e 79 88 b6 3d cc 04 f4 3c 9b 32 ab bb
       0.13020945 0.08912749 0.029787444 -0.0052245385
000290 2a 9f 07 3c 72 9e bf ba 56 54 56 bd 67 16 69 3c
       0.008277694 -0.0014619364 -0.052326523 0.014226533
0002a0 7d a7 3a 3e 42 f0 08 bd a8 c9 c7 3d 57 54 4b 3c
       0.18227954 -0.033432253 0.0975526 0.012410245
0002b0 05 dc 4b bd c9 29 24 3d d0 ee d4 ba 69 8e 2d 3e
       -0.049770374 0.040078912 -0.0016245488 0.16948856
0002c0 f7 39 ac bc 73 68 a4 3c 73 0f ee bd 13 8b 81 3d
       -0.021023734 0.020069337 -0.116240405 0.063253544
0002d0 9f 4a 5d 3b bb 63 3b 3e 4c c0 3f 3d 9c 49 03 3d
       0.0033766401 0.18299763 0.046814248 0.03205262
0002e0 50 7a ef 3d 52 c8 8b 3d cb d8 fa 3d 0b 10 d1 3d
       0.11693251 0.068253174 0.12248381 0.10208138
0002f0 ef 20 9b 3d ef 4c 53 bb 43 88 75 3d be f1 25 bd
       0.07574641 -0.00322419 0.059944402 -0.040513746
000300 0f 60 24 3d 14 02 21 3d 90 2e 22 bd ac 28 5f bc
       0.04013067 0.039308622 -0.039595187 -0.013620537
000310 ff 72 7e 3d d0 1d 8b bd 39 c2 2f bd 04 dd a7 3d
       0.062121388 -0.06792796 -0.042909835 0.08196452
000320 4b 17 a2 bc 0f ed ac 3d 10 8a cd 3c 32 8a 72 bd
       -0.019786498 0.08443653 0.025090247 -0.059213825
000330 ab 8a 48 3e 55 b3 0c bd ee 8c 1f 3e 0e d2 71 3d
       0.19584148 -0.03435071 0.15581104 0.059038214
000340 81 f3 4c bd 2c 96 20 3e e5 91 25 3b 76 47 fd 3d
       -0.05003691 0.15682286 0.0025263962 0.12367146
000350 5c b4 94 3d 25 ca 08 3d 60 dd 33 3e ca c0 5a 3b
       0.07260963 0.033395905 0.17564917 0.0033379071
000360 84 e1 b0 bd ff 93 93 3a 81 4e 1d 3e 26 58 57 3b
       -0.08636764 0.0011259316 0.15361978 0.0032858937
000370 1f 85 ca bc e6 c3 39 3c 26 a1 60 3d e1 69 42 3d
       -0.02472168 0.01133821 0.054841183 0.047464255
000380 84 65 32 bc 30 2b 81 3e 90 0f c4 3c fb e2 18 3e
       -0.010888461 0.25228262 0.023933202 0.14930336
000390 2d 50 04 bc 43 46 c4 3d 64 50 04 3d 1b 68 b1 3c
       -0.008075756 0.09583714 0.03230323 0.021656087
0003a0 d4 21 25 be ac 2c e1 3e 32 e8 23 3d 0f 7f e9 bb
       -0.16126186 0.43979394 0.04001636 -0.0071257423
0003b0 71 22 e7 3c c6 6d 0e bd 33 ab 26 bc ec db a0 bd
       0.028214665 -0.034772657 -0.010172653 -0.07854447
0003c0 45 f2 8d 3e c5 62 b9 3d c2 e0 59 3d 53 b4 81 bc
       0.277239 0.09052042 0.05319286 -0.015833056
0003d0 db 0a b8 bd 8f 39 d6 3e 15 92 ae 3d 34 85 56 3d
       -0.089864455 0.4184079 0.08523957 0.052373126
0003e0 02 a1 83 bd f3 d9 11 3e 5b 6a 83 bd ec d8 0e bc
       -0.06427194 0.14243297 -0.0641677 -0.00871871
0003f0 74 cf ec bd 9f ff 91 bd 1f 03 50 3d 9b f5 0f 3d
       -0.11563006 -0.07128834 0.050784227 0.035146337
