weights/gen_modelWeights0090/arr_19.npy (npy, 2128 bytes, 1 tensors)

array f4 [512]
0	0x3c8f6b61	0.017507257
1	0x3c292e9e	0.010326056
2	0x3cc2dd77	0.023787243
3	0xbbba134c	-0.00567857
4	0x3dda8118	0.10669154
5	0x3d9fd8dc	0.078050345
6	0xbb8b36c3	-0.0042484715
7	0x3d1cf65e	0.03832089
8	0x3d0b441f	0.034000512
9	0xbcb8e096	-0.022568028
10	0x3d8735a1	0.06602026
11	0x3d2deade	0.042460315
12	0x3d8a3d26	0.067499444
13	0x3c0a70fe	0.008449791
14	0x3d35f733	0.0444252
15	0x3c2b78a1	0.010465772
16	0x3d2e4527	0.042546418
17	0x3ceb93bb	0.028756967
18	0x3cb3d6dd	0.02195304
19	0x3d886e4f	0.06661665
20	0x3d147445	0.036243696
21	0xbc356b73	-0.011072981
22	0x3c013d0d	0.007888091
23	0xbcaaced0	-0.020850569
24	0x38d7b76b	0.00010286163
25	0x3c828fd7	0.015937729
26	0x3b2d126e	0.002640869
27	0x3c8a37ba	0.016872276
28	0xba2ca6a3	-0.000658611
29	0xbcc7331b	-0.024316361
30	0x3e86bd58	0.26316333
31	0xbc0cf498	-0.008603238
32	0x3c9319a4	0.017956562
33	0x3d9ae75e	0.07563661
34	0x3d88d7cc	0.06681785
35	0xbce230b5	-0.027611116
36	0x3d89e6bd	0.06733463
37	0xbd1d0d4d	-0.038342763
38	0xbae0c65b	-0.0017148958
39	0xbb1b2bc3	-0.0023677207
40	0x3ca8119a	0.020516206
41	0x3ce632c7	0.028100384
42	0x3c245a3c	0.010031279
43	0xbce9c3b5	-0.028535703
44	0x3c6ed635	0.014577438
45	0x3cf3dd0b	0.029768487
46	0xbc6b685f	-0.014368146
47	0x3d26eecc	0.04075508
48	0x3bf11005	0.007356646
49	0x3d751f07	0.059844043
50	0x3daf5bba	0.08562417
51	0x3bc33ac6	0.005957934
52	0x3d163e9f	0.036680814
53	0x3d40cfe0	0.047073245
54	0x3d5431e1	0.05180538
55	0x3d807fdd	0.06274388
56	0x3c2f7e53	0.01071127
57	0xbb93b99b	-0.00450821
58	0x3ddbc945	0.107317485
59	0xbb6b68b3	-0.003592056
60	0x3cb24172	0.021759722
61	0x3e57e2c4	0.21082598
62	0x3cb6be60	0.022307575
63	0x3de3aff8	0.11117548
64	0xbb7d31e7	-0.003863448
65	0x3b52a338	0.0032140743
66	0x3b258080	0.0025253594
67	0xbc2c83dc	-0.010529485
68	0x3ce4d1f3	0.027932143
69	0x3d22f1b9	0.039781306
70	0xbbb29dd5	-0.005450944
71	0x3d663cf2	0.056210466
72	0x3b37b28b	0.0028030004
73	0x3e3bb02b	0.18328921
74	0xbd2ac8c9	-0.04169539
75	0x3ccba905	0.024860868
76	0xbbd36c68	-0.006452132
77	0xbbf2019b	-0.0073854453
78	0x3d0213ff	0.03175735
79	0x3d50c6a8	0.050970703
80	0xbbe3e327	-0.006954569
81	0x3cfcf545	0.030878672
82	0x3d72fe63	0.059324633
83	0x3d5f62e3	0.054537665
84	0x3d9a11e9	0.07522947
85	0xbb47ee94	-0.0030507194
86	0x3ddcaf51	0.107756265
87	0x3d95a3b3	0.07306614
88	0x3ca91528	0.02063997
89	0x3aadd597	0.0013262507
90	0x3ca9e02b	0.020736774
91	0xbbcc704a	-0.006238972
92	0x3c3647f6	0.011125555
93	0x3ad48a07	0.0016215452
94	0x3c878ad6	0.016545694
95	0xbc139c93	-0.009009498
96	0x3cad0ebe	0.021125194
97	0x3d998150	0.074953675
98	0xbd2f00bd	-0.042725313
99	0x3d3e5a7c	0.04647301
100	0xbb9ab0fa	-0.0047208043
101	0x3b42fe36	0.0029753572
102	0x3d5eed9d	0.054425824
103	0x3c18ea3a	0.009333188
104	0x3c85da44	0.016339429
105	0x3cfac970	0.030613631
106	0x3d409a67	0.04702225
107	0x3de330bd	0.110932805
108	0x3c977ad4	0.018491186
109	0x3cabbb12	0.020963226
110	0xbcaf6c40	-0.021413922
111	0x3d291760	0.041282058
112	0x3c3991b7	0.011326245
113	0x3d8601e6	0.06543331
114	0xbc23ef25	-0.010005747
115	0xbd2767f4	-0.04087062
116	0x3d94cbe5	0.07265452
117	0x3c9dab45	0.019246707
118	0x3d0c2be7	0.034221556
119	0xbd350baf	-0.044200595
120	0xbcda0930	-0.026615709
121	0x3db4761a	0.088115886
122	0xbb67c357	-0.0035364234
123	0x3d4afc74	0.049557164
124	0x3d03ae89	0.03214887
125	0xbd22e3a2	-0.03976787
126	0xbd08af9c	-0.0333706
127	0xbc8059dd	-0.01566785
128	0x3c9da207	0.0192423
129	0xbbfc7221	-0.007704035
130	0x3dd78ed7	0.105252914
131	0x3ca43cd1	0.02004853
132	0x3cf7f7a0	0.030269444
133	0xbd51ac76	-0.051189862
134	0xbc948545	-0.018129954
135	0x3c6976aa	0.014249483
136	0xbbb5fa8b	-0.0055535487
137	0x3d579f64	0.05264224
138	0xbc8cd8f2	-0.017193291
139	0x3d204bd0	0.0391348
140	0x3da5a4aa	0.08088048
141	0x3d029a03	0.03188516
142	0x3b52785b	0.0032115194
143	0x3c19a5c1	0.009377898
144	0x3d4546e2	0.048163302
145	0x3d93e50f	0.07221424
146	0x3d378fd1	0.04481489
147	0xbd8c98df	-0.06865095
148	0x3d25ff65	0.040526766
149	0xbcad34f3	-0.021143412
150	0x3c96e5d5	0.01842014
151	0xbc1b5c09	-0.009482392
152	0xbc457cb7	-0.01205366
153	0x3b911f88	0.0044288076
154	0x3d39d9ce	0.04537373
155	0xbd56bae2	-0.05242432
156	0x3cde4ad4	0.02713529
157	0xbd4e1b1d	-0.050318826
158	0x3b77c718	0.0037807878
159	0x3ca9674b	0.020679137
160	0x3d1c6ddb	0.038190704
161	0xbc9fbeda	-0.019500185
162	0x3c99a0f2	0.018753503
163	0xbd02eb30	-0.031962574
164	0xbcfc4223	-0.030793255
165	0x3c10c137	0.0088351285
166	0xbac61180	-0.0015111417
167	0x3c90ad2b	0.017660698
168	0x3a190fc2	0.0005838835
169	0x3d366507	0.04452994
170	0xbc8e2054	-0.0173494
171	0xbb312d56	-0.002703508
172	0x3d3e82db	0.046511512
173	0x3cc55414	0.024087943
174	0x3da5e884	0.081009895
175	0x3b59c988	0.0033231694
176	0xbc5a1ec7	-0.013313002
177	0xb9abfb64	-0.00032802962
178	0x3d1696f2	0.036765046
179	0x3dac51ad	0.08414016
180	0x3e07605b	0.1322035
181	0x3c0995e1	0.00839755
182	0xbbd5255e	-0.0065046987
183	0x3d89f676	0.06736462
184	0x3d15ef62	0.036605246
185	0xb90914f4	-0.00013073144
186	0xbd93bccc	-0.072137445
187	0x3ce82628	0.028338507
188	0x3cb3ad0c	0.021933101
189	0x3c8b1566	0.016977977
190	0x3cd1b720	0.025600016
191	0x3ca2a92f	0.019856064
192	0x3c825d34	0.015913583
193	0xbc196a02	-0.009363653
194	0x3c1266b0	0.008935615
195	0xbad326dd	-0.0016109605
196	0xbd216c8f	-0.03941017
197	0x3c7d6212	0.015465276
198	0x3d6ce94e	0.057839684
199	0x3d2566ed	0.04038136
200	0xbdb902d3	-0.09033742
201	0x3d6f07fb	0.05835722
202	0x3d239295	0.039934713
203	0x3cf21b22	0.029553954
204	0xbcbc02ee	-0.022950616
205	0xbaa4342d	-0.0012527757
206	0x3b565a1a	0.0032707513
207	0x3c9764b7	0.018480642
208	0x3d05966f	0.032614168
209	0x3ae8ad56	0.0017751853
210	0x3dac9f98	0.084288776
211	0xbb5d2e7c	-0.003374963
212	0x3d6bbc97	0.0575529
213	0x3d9399db	0.0720708
214	0x3c01bab8	0.007918052
215	0xbd2ab357	-0.041674938
216	0x39a224a3	0.00030926344
217	0x3d355f65	0.04428043
218	0xbc6e2bb3	-0.014536786
219	0x3ca1e8d6	0.019764345
220	0x3b9f8534	0.004868174
221	0x3c955bbf	0.018232225
222	0xbbf6b1cd	-0.0075285197
223	0xbce5f36f	-0.02807018
224	0xb9470dbd	-0.00018983237
225	0xba4031b0	-0.0007331623
226	0xbb5b09f2	-0.0033422676
227	0xbb16fce1	-0.0023038911
228	0x3a7a7b83	0.0009555148
229	0x3bf80414	0.0075688455
230	0xbc0e79c9	-0.008696028
231	0xbc3cae4e	-0.011516167
232	0x3d887a8c	0.06663999
233	0x3b444608	0.0029948968
234	0x3b9b6728	0.004742522
235	0xbd04f23a	-0.032457568
236	0xbabae56c	-0.0014259047
237	0x3e2c6bc6	0.16837987
238	0x3b8f4c6c	0.004373124
239	0xbc50053c	-0.0126965605
240	0x3d237fdb	0.039916854
241	0x3c57b6eb	0.01316617
242	0x3c69a120	0.014259607
243	0xbc377b0c	-0.01119877
244	0xbbac5370	-0.00525897
245	0x3d885e7e	0.06658648
246	0xbbf9c94f	-0.007622875
247	0xbc2c3314	-0.010510225
248	0x3d8ac3a0	0.06775594
249	0x3d0513f2	0.032489724
250	0x3d023034	0.03178425
251	0x3c4099d6	0.011755427
252	0x3c26a30f	0.010170712
253	0xba9cd5e4	-0.00119656
254	0x3b935463	0.0044961437
255	0xbcb815ea	-0.022471387
