weights/gen_modelWeights0090/arr_15.npy (npy, 2128 bytes, 1 tensors)

array f4 [512]
000000 e3 0c bf 3b 87 46 54 3b b0 7a 10 3d b7 1f a2 3c
       0.0058303936 0.003239067 0.035273254 0.019790513
000010 20 0c 13 3a 29 4b 10 3e 71 d3 a4 bc 57 9a 4a 3c
       0.0005609412 0.14091171 -0.020120354 0.012365899
000020 16 3a 1e 3d 3e 8e dc 3c f2 a2 e0 3c 6d 61 4a 39
       0.038629614 0.026923295 0.027421448 0.00019300515
000030 65 3f a5 3b 35 1f 22 3d f8 35 0a 3d e1 be f6 bb
       0.0050429576 0.039580543 0.033742875 -0.0075300788
000040 7b 61 a5 3b 6e 99 80 bb 4a f0 f7 3c 45 df 5a 3b
       0.005047021 -0.0039245402 0.030265946 0.003339724
000050 44 b1 10 3e cd c5 6b bc 16 48 3c 3d 81 a5 64 3b
       0.14130121 -0.014390421 0.045967184 0.0034888687
000060 28 3a 9a bb e6 b3 97 3d c7 cd 35 ba 08 35 67 bc
       -0.00470664 0.0740736 -0.0006935265 -0.014111765
000070 9b 01 82 3d 3f e5 50 3d f4 82 fa bb 06 17 9d 3b
       0.063479625 0.050999876 -0.0076450054 0.0047940044
000080 77 db 48 3c 20 ba 89 3c 8f b4 94 3d 60 4f 38 3b
       0.012259356 0.016812384 0.07261001 0.0028123483
000090 a5 39 d8 3c be f1 1b bd 5e c9 2e 3c 6c ef df 3c
       0.026394675 -0.03807234 0.010668127 0.027335845
0000a0 c1 cc 05 3c 23 22 d6 bb 6a 5d 15 3d 18 6d 0d 3c
       0.008166493 -0.006534831 0.03646604 0.008631967
0000b0 a4 fb cc bb 41 ac 80 3d 07 a7 5a 3c 99 8e 97 3b
       -0.006255584 0.06282855 0.0133454865 0.0046251533
0000c0 90 57 a2 3d 89 80 c4 3a 07 e3 23 bd 8d 36 8f bb
       0.079268575 0.001499192 -0.040011432 -0.0043705166
0000d0 e4 c7 c1 3b 19 e1 ec 3c 78 8f 94 bb 79 b4 03 3d
       0.0059137214 0.028915929 -0.0045337044 0.032154534
0000e0 bd b9 af 3c 4f 39 f4 3c 57 7b a7 3c 99 09 74 3c
       0.021450872 0.029812483 0.020444555 0.014894866
0000f0 c7 aa ba bc 93 c6 be 3b 42 af f2 ba 4e b9 d9 3b
       -0.022786511 0.0058220117 -0.0018515366 0.0066444045
000100 c0 04 a1 bb ea 9c 33 3d 3c bc 25 3d 44 81 a8 3c
       -0.0049138963 0.043850817 0.040462717 0.020569451
000110 03 73 a2 3c d6 65 69 bb 7f 98 a1 3d 3b 03 41 3c
       0.019830232 -0.0035613677 0.078904144 0.011780555
000120 b7 16 d5 3b 9b 42 de bb 65 44 b5 3d d8 94 2b bc
       0.006502952 -0.0067828423 0.08850936 -0.010472499
000130 09 94 76 3d d6 44 20 3c a3 69 b9 3c 6b 35 27 bc
       0.06019977 0.009782037 0.02263338 -0.010205607
000140 47 51 1d b9 3a 5c 79 3b e2 37 f9 3b d5 70 49 3b
       -0.00015002965 0.0038049356 0.0076055387 0.003073742
000150 77 44 83 bb bf 67 d0 3b 7f 18 90 3c ee 1e 01 bc
       -0.0040059644 0.0063600237 0.017589806 -0.007880909
000160 de 9d c3 bb ef 10 8d 3c 82 c4 cf bc 6f 36 32 3c
       -0.005969747 0.017219989 -0.025362257 0.010877236
000170 46 f6 33 3c 4a 6b c4 3c 88 8f d2 3c 36 7f 7a 3d
       0.010984009 0.02397694 0.025703207 0.061156474
000180 c0 c1 e8 3c de 69 e1 bb d1 20 79 bc e0 d8 e5 bc
       0.0284127 -0.0068790754 -0.015205578 -0.028057516
000190 ad b0 03 3b c3 ea c6 bd be 37 7e bc 75 31 80 3c
       0.002009432 -0.09712746 -0.01551622 0.015648583
0001a0 f9 80 dd 3c e8 40 bf ba 72 88 43 3c a3 0f a2 bb
       0.027039038 -0.0014591487 0.011934387 -0.0049457117
0001b0 a2 2f 4b 3b ea cd 3e 3c e9 b4 d9 3c d4 24 00 3d
       0.0031003733 0.011645773 0.026575522 0.031285122
0001c0 6b be 77 3d 37 94 25 3c e8 af 0c 3b 1a 90 34 3b
       0.06048433 0.010106138 0.0021467153 0.0027551712
0001d0 c2 1e 26 3d 04 77 51 bc 99 2f 53 bc 04 f5 d6 bc
       0.040556677 -0.012784723 -0.012889766 -0.02623988
0001e0 c9 b0 ae bc 8e 1f 2c bc 7c d3 a3 bc e0 54 59 3d
       -0.021324532 -0.01050557 -0.019998305 0.05305946
0001f0 34 bc 90 bc a4 b5 b2 bb 76 c6 ed 3b 83 1f 26 3d
       -0.017667867 -0.005453782 0.0072563244 0.040557396
000200 dc da 7a bc 6c 93 55 3d a2 30 53 3d b1 0f 06 3c
       -0.015310969 0.052142546 0.05156005 0.008182452
000210 a5 20 81 3c 2c f4 06 3c 3a 74 89 3c 58 55 2c 3c
       0.015762636 0.008236926 0.016779054 0.010518394
000220 07 de d0 bb 7e 66 16 3c 95 36 63 3c 83 99 c1 3d
       -0.006374124 0.0091797095 0.013867994 0.09453108
000230 ff d5 91 3c 79 f6 01 bd 6e e7 c0 bb 5b 82 b3 3b
       0.017802237 -0.031729195 -0.0058869636 0.005478186
000240 92 aa 2c 3c 74 79 53 3a ea 32 60 bc 45 69 5b bc
       0.010538714 0.0008067109 -0.013684014 -0.013391797
000250 0f ce a0 bb 10 af 23 3d 9f 6e 2a bc 58 4e ae 3c
       -0.0049073766 0.039961874 -0.010402351 0.021277592
000260 0c ee 2d bb f6 a3 1b 3c 24 79 08 bd a0 8f 37 bc
       -0.0026539592 0.009499541 -0.033318654 -0.011203676
000270 d1 7e 02 bd 32 67 65 3d 9f f1 89 bb 9e b4 9f bb
       -0.031859223 0.056006618 -0.0042097117 -0.004873826
000280 45 28 50 3d 86 7f 0d 3d c6 34 9d 3b 1c e0 6a bc
       0.050819654 0.034545444 0.004797551 -0.014335658
000290 4e 92 51 3c 6c 68 9f 3b 34 45 5e 3c 52 f7 1e bd
       0.012791229 0.004864743 0.013566304 -0.03881008
0002a0 a3 83 4b 3b 85 bc 26 3b b9 3c cf bb 54 ca d2 3c
       0.0031053803 0.0025441956 -0.0063243774 0.025731243
0002b0 6d a9 1a bc 2c c1 cf 3d eb c5 0f bc 18 d2 9c 3d
       -0.009439808 0.101442665 -0.008775215 0.0765726
0002c0 a0 3c b6 3c e8 22 a8 bb 32 33 14 bb aa 4c 1f bc
       0.022245705 -0.0051311143 -0.0022613523 -0.009722868
0002d0 57 dd 9d 3c 1d 31 84 3b 6c 08 8f bc 63 04 b7 3d
       0.019270582 0.004034175 -0.01746007 0.089363836
0002e0 fb ba 08 3d 71 e6 44 bb 0e fe 7d 3b 9e 2f 71 bb
       0.033381443 -0.003004458 0.0038756165 -0.0036802064
0002f0 f8 c1 91 3d e2 98 0f 3c 78 7b dc 3b 60 42 8e bb
       0.07117075 0.008764477 0.006728586 -0.0043414086
000300 4f 7c 03 3b 93 fb cb ba bc d1 42 3d c9 23 e9 3b
       0.0020063107 -0.0015562646 0.0475633 0.0071148616
000310 6c ae 0d 3d 7d 79 07 bc 20 79 88 bb da c7 dc bc
       0.03459017 -0.008268711 -0.00416483 -0.026950765
000320 9e 04 af 3c 7a 0c 0d 3d e6 78 2d bc 43 f6 88 bc
       0.021364506 0.034435727 -0.010587906 -0.01671899
000330 c3 f5 89 3b 99 c9 61 bd 6b 82 a2 3a b4 4d 2c 3c
       0.0042102053 -0.0551239 0.0012398487 0.010516573
000340 93 0a 05 3c 0f af 5b bc 9f 0e a3 bb 68 38 8d 3d
       0.008120197 -0.013408436 -0.004976108 0.06895524
000350 99 c7 b7 bb e9 7a 8a 3b be a4 9d bc e1 b3 63 3c
       -0.0056085107 0.004226078 -0.019243594 0.013897867
000360 93 d9 cc 3d 93 89 68 3c 75 7f 80 bc 11 8f 17 3b
       0.100024365 0.0141929565 -0.015685776 0.0023126046
000370 ff 0c 96 3c 0a 04 b6 bc 8c 8c d3 3c 03 b7 cb 3c
       0.018316744 -0.022218723 0.025823854 0.02486754
000380 99 70 eb bc bb 77 49 3c f7 fe e7 bb b4 88 05 3e
       -0.028740214 0.012296612 -0.0070799547 0.1304043
000390 c5 40 8a 3c cb 9d 07 3d 0b 3c 76 bb 99 67 cc bb
       0.016876588 0.033109467 -0.003757241 -0.0062379357
0003a0 d9 be a6 3b 82 60 5b bb cd 04 a3 3d d7 79 6f 3c
       0.005088669 -0.0033474271 0.079599 0.014616451
0003b0 dc 0e a3 bc 1e a7 50 3b 52 a1 52 3a 6c 7d ad bb
       -0.019904546 0.003183789 0.0008034903 -0.0052944925
0003c0 12 4d d1 bc bc 46 95 3c 6f 19 60 3d 96 12 17 3c
       -0.025549445 0.018222205 0.054711755 0.00922074
0003d0 a3 cb da 3c 51 be 1b 3c 71 fc 21 bc 22 96 ed bc
       0.02670843 0.009505824 -0.009886847 -0.029002253
0003e0 74 ae 95 bc a2 fc b0 3c 99 04 4e ba 3d b5 af 3b
       -0.018271662 0.02160484 -0.00078589615 0.0053621815
0003f0 8f 0e 84 bb d6 e9 12 39 0b 3a 0d 3d 4d 0e 19 3c
       -0.004030056 0.00014010756 0.034479182 0.0093417885
