weights/gen_modelWeights0090/arr_35.npy (npy, 2128 bytes, 1 tensors)

array f4 [512]
000000 d0 b6 c7 39 74 b3 57 b8 38 ad 10 3a ef c5 7f 37
       0.00038092444 -5.1427123e-05 0.00055189757 1.5245269e-05
000010 c3 26 12 3a 0b 74 05 3b 5e a4 e7 39 86 99 e7 3a
       0.0005575234 0.0020363356 0.00044182217 0.0017669655
000020 0a f9 45 3a 81 1d fe 3a a7 fd fb b9 a6 bc 8d b9
       0.00075520633 0.0019387455 -0.00048063436 -0.0002703417
000030 ea 0d b4 37 b9 98 9d b8 65 06 06 3b b0 e6 03 37
       2.1464151e-05 -7.51479e-05 0.0020450589 7.86192e-06
000040 28 b7 13 3b 87 ef 2b b7 cd cb 9e ba 83 44 de b7
       0.002253959 -1.0248164e-05 -0.0012115181 -2.6496366e-05
000050 f3 cc 95 39 78 91 c8 39 1d 14 0f 3a 52 2a 12 ba
       0.00028572194 0.00038255355 0.0005458014 -0.0005575764
000060 23 c9 22 3a 58 9d 22 b7 f4 2b 26 b8 94 53 fb 36
       0.0006209781 -9.692587e-06 -3.961842e-05 7.4901127e-06
000070 cc f8 d0 39 1e 7e 7b 39 29 30 9a 39 ea c3 1d 3a
       0.0003985822 0.00023984208 0.0002940905 0.0006018268
000080 80 15 30 ba 1f 75 60 38 ea 9a f2 ba 44 0b 07 3b
       -0.0006717071 5.351484e-05 -0.0018509303 0.002060608
000090 03 cc ac b9 2b b1 8b 3b 53 a9 b9 b6 f6 f0 6c 38
       -0.00032958397 0.0042630634 -5.5331416e-06 5.6491197e-05
0000a0 46 d3 ce b9 26 dd 25 3a 24 85 a6 3a c3 f6 37 37
       -0.00039448793 0.0006327204 0.0012704474 1.0965104e-05
0000b0 fb 0f d7 38 53 38 da b7 96 43 22 3a 63 4e e2 3a
       0.000102549755 -2.6013853e-05 0.00061898807 0.0017265793
0000c0 8b dd 0c 3b 8a 23 ed 3a 05 b7 16 b8 de c6 d9 3a
       0.0021494355 0.0018092257 -3.5933237e-05 0.0016615053
0000d0 55 a8 1c 39 63 41 ad 3a 93 88 99 3a e8 3b cd 3a
       0.00014940028 0.0013218339 0.0011713676 0.0015658112
0000e0 aa 82 a2 3a 3a 22 19 b7 21 27 80 b5 da 2d 95 39
       0.001239856 -9.12748e-06 -9.548131e-07 0.00028453657
0000f0 a2 d8 89 3a 37 84 94 ba 87 76 ae 38 1a bc 8b 3a
       0.0010516832 -0.0011330907 8.319044e-05 0.0010660917
000100 d1 0c 92 b9 43 7b a6 39 52 34 9b 36 53 90 85 37
       -0.0002785684 0.00031753824 4.625451e-06 1.5922042e-05
000110 22 69 54 36 ce e9 1f 37 b9 ab 04 3a 83 43 af 3a
       3.1651657e-06 9.531575e-06 0.0005060989 0.001337156
000120 74 a3 99 3a d9 8a 9a 3a da 8a 11 b7 f6 07 7b 3a
       0.0011721686 0.0011790647 -8.675002e-06 0.00095760764
000130 d5 b5 42 39 29 0e 85 ba a1 8d 7e b8 d2 42 d2 39
       0.0001856902 -0.0010151315 -6.069022e-05 0.00040104106
000140 1c c3 9b 39 7c 18 ec 39 ed 6e 2f b8 32 5a a7 3a
       0.00029709272 0.0004503167 -4.182656e-05 0.0012767969
000150 fa 0c 2a 3a 84 3f ec 38 45 d3 98 b8 04 bf ca ba
       0.0006486919 0.00011265188 -7.287277e-05 -0.0015468304
000160 0e a3 9c 36 06 20 15 b5 f8 bd 71 3a 52 c3 72 b6
       4.6681444e-06 -5.5553426e-07 0.0009221728 -3.6174501e-06
000170 5d cd e1 37 99 e7 c3 33 6f f3 53 b8 27 6d 53 b8
       2.691772e-05 9.1225225e-08 -5.0533035e-05 -5.0407976e-05
000180 40 f0 b2 39 15 b3 91 3a 02 71 bc b7 ad ec 3d 3a
       0.00034129806 0.0011115993 -2.246397e-05 0.0007245045
000190 3d bc a9 3a d1 77 60 3a d7 9b 2a b9 4f de fa ba
       0.0012949776 0.0008562776 -0.00016270518 -0.001913974
0001a0 0e b8 5e 3a f3 8d 1f ba 02 8c 26 3a 64 8b b4 3a
       0.0008496054 -0.0006086521 0.000635326 0.0013774452
0001b0 24 4d 7c 3b 54 8e 07 b9 07 0a 8c 3a ec 30 14 3a
       0.0038498128 -0.00012927625 0.0010684141 0.0005653042
0001c0 40 6b 0f 3b 85 0d 12 3b ba 71 25 39 e2 5f 62 3a
       0.0021883994 0.002228589 0.00015777993 0.00086355035
0001d0 63 20 47 b9 77 a9 65 38 e1 b4 e6 b8 ed 5d 1e 39
       -0.00018990184 5.475568e-05 -0.00011000946 0.00015103044
0001e0 84 eb 00 3a 1c 96 4d 3a 99 7a dd b8 ed dd e0 b8
       0.0004917907 0.00078424974 -0.00010560937 -0.00010722489
0001f0 c1 7a 8b b8 b1 21 35 39 83 ac 02 3b 16 0c 96 3a
       -6.650901e-05 0.00017274056 0.001993925 0.0011447694
000200 d3 02 d5 b9 d4 e1 b3 3a 54 8b 75 3a f0 9f c9 39
       -0.0004062863 0.0013723918 0.000936677 0.0003845687
000210 aa cb 76 3a 5c e6 be 38 07 d9 19 3b f0 ec 14 3b
       0.00094145036 9.102814e-05 0.0023475306 0.0022724234
000220 0e eb e7 b5 6d 76 7c 3a 2b 52 75 3a d0 d1 a7 b8
       -1.7279251e-06 0.0009630684 0.0009358252 -8.002261e-05
000230 02 40 1b bb 0b 84 c1 38 9a 6a 66 3a e6 4d a5 b7
       -0.0023689275 9.227552e-05 0.00087896886 -1.9705807e-05
000240 58 08 79 b8 80 1b 67 39 8d 86 4a b9 15 7e e1 3a
       -5.9373997e-05 0.00022040121 -0.00019314345 0.0017203713
000250 6d 5e 94 b9 ed dc 1d bb 1c a9 56 3a 90 c5 c7 3a
       -0.00028299112 -0.002408798 0.00081886514 0.0015241373
000260 97 38 c5 39 89 26 c5 3a 13 9c 0d 3b d4 7a 88 b8
       0.0003761693 0.0015041392 0.002160792 -6.507864e-05
000270 27 6b f0 39 3a d0 d1 3a 81 21 37 34 59 37 8c 39
       0.00045856202 0.0016007491 1.7055392e-07 0.00026744118
000280 12 f8 37 37 32 7b 28 b8 32 4a e7 3a 37 4f 07 bb
       1.0965408e-05 -4.0169056e-05 0.0017646013 -0.002064658
000290 ba fa 68 b7 78 ad fc 3a 5a 55 13 3b a1 b4 40 b8
       -1.3886654e-05 0.0019277772 0.0022481293 -4.594459e-05
0002a0 90 52 cb b8 e3 a6 41 b7 26 35 6c b8 78 6c a8 b5
       -9.695173e-05 -1.1542553e-05 -5.6316283e-05 -1.2548544e-06
0002b0 1f f1 85 37 1d 6f db 39 86 fe 34 3a 8f 72 1c b9
       1.5967116e-05 0.0004185372 0.0006904382 -0.00014919996
0002c0 38 70 d8 b9 8e 32 50 39 f2 5c a3 38 d2 a8 93 39
       -0.0004128234 0.00019855259 7.789758e-05 0.00028163806
0002d0 20 8b 50 38 a4 af bc ba 75 e9 9b 36 d0 3a e4 b8
       4.9720635e-05 -0.0014395607 4.646538e-06 -0.00010882842
0002e0 e4 12 77 b9 ac c3 e7 ba 06 56 8e 39 e3 7b 2a 3b
       -0.00023562793 -0.0017682216 0.00027148443 0.0026013784
0002f0 78 f1 ce 3a a9 d9 51 ba b7 3e a9 3a c4 a5 5f 39
       0.0015788516 -0.0008005151 0.0012912367 0.0002132869
000300 70 c7 25 3a a4 87 87 39 36 cd 1b ba 24 87 b3 b9
       0.0006323969 0.00025850267 -0.00059433596 -0.00034242228
000310 5f 3d 84 3a 43 83 0c b9 35 18 8b 39 fd e5 4e 3a
       0.0010089091 -0.00013400339 0.00026530182 0.00078925473
000320 1c 25 21 3b 2c fb a5 37 1b 68 06 b6 75 c4 92 39
       0.002458877 1.9786494e-05 -2.0028153e-06 0.00027993662
000330 86 4c ea 39 e3 f9 34 3a 95 5d b0 3a ca 77 39 3a
       0.00044688972 0.0006903691 0.0013455624 0.000707504
000340 c4 89 0d 39 32 f5 a0 3a a7 26 56 3a 8a bf c4 3a
       0.0001349813 0.0012280105 0.0008169212 0.0015010696
000350 06 7a 35 ba 3c fc 89 39 f9 8e 8b 3a f9 83 8a 38
       -0.0006922785 0.00026318606 0.0010647468 6.6049346e-05
000360 25 f4 38 3a 4c bb 71 37 5f 99 fd 39 dc 55 9c 39
       0.00070554233 1.4408328e-05 0.0004837019 0.0002981861
000370 49 20 b4 38 93 a4 5c 38 92 9f a1 b9 d5 fe 57 3a
       8.5890824e-05 5.260536e-05 -0.00030827202 0.0008239572
000380 e0 03 7e 3a 97 aa d0 3a 9d 24 57 3b 24 15 37 3a
       0.00096899085 0.001591998 0.003282822 0.0006984046
000390 16 aa 13 3a 69 29 1b 3a 58 d5 22 3a e7 b9 28 3a
       0.000563295 0.00059189514 0.00062116 0.0006436393
0003a0 31 59 dc 3a eb 7b 29 39 4b 06 17 3b e3 64 85 3b
       0.0016811249 0.00016163259 0.0023044522 0.0040708645
0003b0 59 c7 53 b7 6c 37 27 3b 67 fa 8b 3a ba 1d 00 b9
       -1.2622994e-05 0.0025515212 0.0010679484 -0.00012218105
0003c0 72 aa e9 39 8d 27 9d b8 94 d8 67 b9 86 8e 96 ba
       0.00044568215 -7.49371e-05 -0.00022110558 -0.0011486567
0003d0 86 fc bf 3a 18 f3 06 3a 1c 78 17 39 40 6d 2e b8
       0.0014647401 0.0005147918 0.00014445226 -4.158658e-05
0003e0 be 6c 62 3a 81 e2 d9 b7 96 d8 3e 39 f9 b4 80 b8
       0.00086374197 -2.597389e-05 0.00018200497 -6.1372244e-05
0003f0 01 30 49 3b c9 ac 3a 3b 99 8b 46 ba c9 6b 78 b7
       0.0030698779 0.0028484336 -0.0007573902 -1.4807048e-05
