weights/gen_modelWeights0090/arr_27.npy (npy, 2128 bytes, 1 tensors)

array f4 [512]
0.00042435678 0.00038385086 0.00019727978 -3.263678e-05 0.000109563654 -7.965475e-05 8.9625646e-05 -6.2268555e-05
-0.00017979598 -2.3739738e-05 5.995847e-05 0.00023520671 -8.0237056e-05 0.00013356726 -0.00029224134 0.00022416115
-1.1488416e-05 0.00013952602 9.18473e-05 0.00024355088 3.93002e-05 0.000833426 0.00033008552 -3.592004e-08
-8.0434154e-07 -0.00010408646 -2.306557e-05 1.1406293e-05 0.0004330186 -4.3032205e-06 0.00012773562 8.709051e-05
-3.5870096e-05 0.00027582035 4.5290613e-05 0.00011441827 -6.117183e-05 8.345889e-05 -0.00041229182 0.00042252833
0.00017364213 0.00020629716 -0.00018582241 0.0002861046 0.00010231291 0.00013899281 -0.00044288658 7.5392585e-05
0.000246307 0.000664816 5.4054963e-05 1.5318048e-05 0.00018294828 -0.00060172286 -0.00047767386 0.00019145165
3.2403914e-05 2.4242943e-05 -0.00073350855 0.00015527922 7.5364944e-05 0.00017745352 7.1654094e-06 -0.00011372372
3.2885528e-05 0.00017917181 2.2297103e-05 0.00058743585 9.14335e-05 0.0007096286 0.00015245526 -1.0587636e-06
0.0004309812 -0.00018161924 6.6808725e-06 0.00010578941 2.646663e-05 -7.86456e-05 0.00028686645 0.000109566485
0.00032000418 0.0001622294 -0.00015526562 0.00048663025 -5.2742096e-05 8.7866385e-05 0.00046279994 8.146882e-05
0.0002576175 3.3861146e-05 -5.175725e-06 -8.979206e-06 -0.00025692827 -0.0006456713 -0.00012295258 0.00015243074
-0.00025822793 0.00027516737 5.8314577e-05 0.00022114218 0.00027752516 0.00014537772 8.836649e-05 -2.7172393e-05
0.00033565355 6.9869507e-06 0.00012964138 7.1808434e-05 0.00019430117 0.00048351506 9.835172e-05 -1.1817461e-05
-4.913088e-05 0.00023956827 -2.9857918e-06 0.0002724949 0.00030077828 0.0002135217 0.00034930342 -3.274744e-05
-2.6289637e-05 0.00038280542 -1.5473302e-05 1.5164839e-05 7.0837974e-05 -0.00018664767 0.00014117331 0.00020900159
-0.00010450627 9.226417e-07 -3.0786814e-05 -0.00014589271 0.00016344913 2.1175623e-05 -8.421116e-05 -0.00014099799
0.00053286756 0.0004032821 4.3325424e-05 -6.558268e-05 -0.00012514282 -0.0001903052 0.00010844177 0.00043084714
-5.288783e-05 -0.00044118968 0.00019759037 -1.6659626e-05 0.00032927666 -0.0003534945 6.4775544e-05 -7.620723e-05
-0.00018488184 0.00039881564 -0.00016476758 -0.00025210934 0.00012885345 0.000117465584 -0.00013336397 0.00038492805
-3.1509866e-05 -7.2576963e-06 -0.00013752992 0.00013394504 0.00017849931 0.00040509214 -0.0002493804 0.00017165727
-0.0005191746 -6.459516e-05 8.817983e-05 -0.00029959725 7.633294e-05 0.00014052613 0.0001646309 0.0002622523
0.0006152771 0.00013590114 -2.799331e-05 -0.000419356 -6.810792e-05 0.00030248112 0.00019799764 0.00023903273
0.00013680509 0.00018136376 0.00016683705 3.831982e-05 0.00011884659 -1.9225723e-05 9.084252e-06 -4.9358307e-05
9.7814176e-05 0.00019346226 0.00017205818 0.00010410853 -0.0003515811 3.405695e-05 7.838333e-06 4.0814208e-05
0.00030826085 -0.0001645146 0.000121055484 8.740727e-05 0.0004632329 -8.1738806e-05 -0.0008011481 0.00011141165
0.00025391756 7.001896e-05 0.00022126737 0.00032632152 -0.00010538241 -7.17228e-06 0.00045522145 -0.00017222975
0.00013025313 -0.00025642465 0.0006809702 9.124733e-05 -0.00025814332 -0.00012110117 2.8982458e-05 -6.547187e-05
-1.766305e-05 0.00014888002 0.0002745495 0.00035664294 0.00018414122 -0.00011986109 0.00031869873 2.4554225e-05
0.00015559667 -0.0001066237 0.00029957053 0.0003898389 0.0002018503 -0.00035881466 0.00015165901 -0.0002209667
-1.2736122e-05 0.00020460584 -0.00022917544 0.0001600533 0.00046060485 -0.00010436657 0.00017244829 0.0003624503
0.0004129865 0.0004344557 -0.00033238812 0.00017073883 9.2039285e-05 0.0002944269 -0.00010312103 3.1074862e-05
00000000: 347c de39 973f c939 e3dc 4e39 7ae3 08b8
00000010: 8ac5 e538 510c a7b8 67f5 bb38 2d96 82b8
00000020: 9e87 3cb9 b324 c7b7 eb7b 7b38 d2a1 7639
00000030: f144 a8b8 300e 0c39 f837 99b9 cd0c 6b39
00000040: 5fbe 40b7 bb4d 1239 259e c038 b161 7f39
00000050: 45d6 2438 467a 5a3a 540f ad39 8046 1ab3
00000060: eee9 57b5 fe48 dab8 ef7c c1b7 a85d 3f37
00000070: c606 e339 6264 90b6 c5f0 0539 5da4 b638
00000080: 3973 16b8 fb9b 9039 6df6 3d38 d7f3 ef38
00000090: 6049 80b8 a606 af38 df28 d8b9 cb86 dd39
000000a0: b413 3639 7951 5839 53d9 42b9 4f00 9639
000000b0: d390 d638 99be 1139 3b33 e8b9 161c 9e38
000000c0: c422 8139 0c47 2e3a 13b9 6238 427f 8037
000000d0: ced5 3f39 f0bc 1dba 4d70 fab9 69c0 4839
000000e0: 70e9 0738 535d cb37 ed48 40ba 73d2 2239
000000f0: 3f0d 9e38 d112 3a39 666e f036 f57e eeb8
00000100: 91ee 0938 11e0 3b39 aa0a bb37 27fe 193a
00000110: fdbf bf38 5f06 3a3a 66dc 1f39 d71a 8eb5
00000120: 51f5 e139 0b71 3eb9 422c e036 42db dd38
00000130: a804 de37 89ee a4b8 9066 9639 0fc7 e538
00000140: 3cc6 a739 1f1c 2a39 ccce 22b9 6822 ff39
00000150: 6537 5db8 e844 b838 f5a3 f239 3dda aa38
00000160: d610 8739 2106 0e38 24ab adb6 65a5 16b7
00000170: 54b4 86b9 4442 29ba d5ec 00b9 d1d5 1f39
00000180: c462 87b9 5744 9039 cd96 7438 67e2 6739
00000190: cc80 9139 8970 1839 6651 b938 45f0 e3b7
000001a0: a8fa af39 7371 ea36 58f0 0739 dc97 9638
000001b0: 53bd 4b39 4b80 fd39 2d42 ce38 9c43 46b7
000001c0: e111 4eb8 9e34 7b39 835f 48b6 a5dd 8e39
000001d0: c7b1 9d39 cbe4 5f39 b622 b739 4c5a 09b8
000001e0: 9188 dcb7 46b3 c839 aacc 81b7 7d6c 7e37
000001f0: d98e 9438 dab6 43b9 ec07 1439 7027 5b39
00000200: 602a dbb8 74ab 7735 1721 01b8 c7fa 18b9
00000210: 8b63 2b39 4ea2 b137 869a b0b8 dcd8 13b9
00000220: 23b0 0b3a 9b6f d339 52b8 3538 6f89 89b8
00000230: c538 03b9 aa8c 47b9 3b6b e338 53e3 e139
00000240: e0d3 5db8 7a4f e7b9 4330 4f39 46c0 8bb7
00000250: c4a2 ac39 3b55 b9b9 1bd8 8738 72d1 9fb8
00000260: d7dc 41b9 2118 d139 76c5 2cb9 8b2d 84b9
00000270: d61c 0739 db57 f638 9ed7 0bb9 2bd0 c939
00000280: 7629 04b8 2387 f3b6 e835 10b9 9973 0c39
00000290: 8b2b 3b39 8c62 d439 45bf 82b9 e6fe 3339
000002a0: 3819 08ba 4377 87b8 30ed b838 4313 9db9
000002b0: ef14 a038 325a 1339 c5a0 2c39 e87e 8939
000002c0: 8c4a 213a af80 0e39 2dd3 eab7 02dd dbb9
000002d0: 29d5 8eb8 5496 9e39 969d 4f39 dca4 7a39
000002e0: 5673 0f39 772c 3e39 fbf0 2e39 98b9 2038
000002f0: 473d f938 ed46 a1b7 9168 1837 1406 4fb8
00000300: 9621 cd38 21dc 4a39 846a 3439 d754 da38
00000310: 6b54 b8b9 5fd8 0e38 6281 0337 ec2f 2b38
00000320: 129e a139 8d81 2cb9 2bdf fd38 6c4e b738
00000330: 11de f239 306b abb8 2404 52ba ada5 e938
00000340: 3d20 8539 25d7 9238 0204 6839 2216 ab39
00000350: c000 ddb8 6ba9 f0b6 caaa ee39 9298 34b9
00000360: 8f94 0839 bc70 86b9 2383 323a 0a5c bf38
00000370: 6957 87b9 b2f7 fdb8 5b1f f337 f14d 89b8
00000380: 1c2b 94b7 ad1c 1c39 69f1 8f39 cefb ba39
00000390: 0816 4139 ef5d fbb8 0517 a739 ccf9 cd37
000003a0: aa27 2339 2a9b dfb8 ad0f 9d39 4b63 cc39
000003b0: c7a7 5339 4a1f bcb9 a806 1f39 4cb3 67b9
000003c0: 3aad 55b7 768b 5639 d04e 70b9 fbd3 2739
000003d0: 567d f139 60df dab8 3cd3 3439 4107 be39
000003e0: 1c86 d839 a8c7 e339 6144 aeb9 5b08 3339
000003f0: 3705 c138 4f5d 9a39 ae42 d8b8 6156 0238
