weights/gen_modelWeights0090/arr_47.npy (npy, 592 bytes, 1 tensors)

array f4 [128]
0	0x3c5a2aa8	0.013315834
1	0x3a6282e9	0.0008640723
2	0x3b37cd8a	0.0028046095
3	0x3ab2db33	0.0013645649
4	0x3b8e5094	0.0043431018
5	0xb906ac1a	-0.00012843349
6	0x3c2f53b8	0.010701112
7	0x3bcd76f2	0.006270283
8	0xba24eec1	-0.00062916806
9	0xb99c7548	-0.0002984202
10	0x3aef9f3c	0.0018281708
11	0xbb629e71	-0.0034579302
12	0xbb9339dc	-0.0044929814
13	0xba32f843	-0.0006827155
14	0xb9a2f043	-0.00031078057
15	0x399761cb	0.00028873826
16	0x3bde81c1	0.00679037
17	0x3c0292ae	0.0079695415
18	0x3c2fa6db	0.010720934
19	0x3a1f9687	0.0006087799
20	0x3b4bd06c	0.003109957
21	0x3b6d360a	0.003619554
22	0x3bd57520	0.0065142065
23	0x3c5146d5	0.012773235
24	0x3b9d6737	0.004803564
25	0x3bc45b81	0.0059923534
26	0xba915ba6	-0.0011089935
27	0x3c0aeac2	0.008478822
28	0xbb71c0c2	-0.0036888574
29	0xb9a4b938	-0.00031418516
30	0xba02ea76	-0.0004994044
31	0x3b865d43	0.004100473
32	0x3a0d19db	0.0005382576
33	0x3bf3e5fa	0.007443187
34	0x39c5f7af	0.00037759307
35	0x3c2a6638	0.010400347
36	0x3c2c1df4	0.010505188
37	0x3747a9ea	1.19008855e-05
38	0xb8f5a7cf	-0.00011713767
39	0x3bbc5580	0.005747497
40	0x3baf240a	0.0053448724
41	0x3a91d86c	0.0011127121
42	0x3b6f160f	0.0036481654
43	0x3ba51d36	0.0050388826
44	0x3bd94753	0.006630817
45	0x3b644bbd	0.0034835183
46	0x3bf8b0f4	0.007589454
47	0x3b7c0704	0.003845633
48	0xb9008513	-0.00012256605
49	0x3c27a0fd	0.010231254
50	0x3a5ba84d	0.0008379266
51	0x3abdd6e3	0.0014483597
52	0x3c345e1c	0.011008766
53	0x39405d73	0.0001834536
54	0x3b744969	0.0037275201
55	0xbae90d8d	-0.0017780528
56	0x3be95678	0.0071209036
57	0x3b47ac62	0.0030467738
58	0x3a015474	0.0004933544
59	0xb85c66db	-5.254788e-05
60	0xbad1e92d	-0.0016014926
61	0x3c0d6387	0.008629686
62	0x3c628520	0.013825685
63	0xbb0b1816	-0.0021224073
64	0x3b5e9df1	0.0033968652
65	0x38459109	4.7103535e-05
66	0x3b02079c	0.0019840961
67	0x3c6be958	0.014398895
68	0x3b1c4e52	0.0023850393
69	0xba126ba4	-0.0005585498
70	0x3b8c5337	0.004282381
71	0x398bbfec	0.0002665514
72	0x3c0843f8	0.008316986
73	0xb90720de	-0.00012886847
74	0x38ea2832	0.000111654765
75	0x3b1dfec9	0.0024108163
76	0x3bda8b82	0.0066694627
77	0x3b388c44	0.0028159777
78	0xb1ed0e8c	-6.8992616e-09
79	0x3bb480c7	0.0055085155
80	0x3bc87f7c	0.006118713
81	0xbafdd7f2	-0.0019366725
82	0x3c41f0c9	0.011837193
83	0xb89ff228	-7.626816e-05
84	0x36d08cb6	6.215264e-06
85	0x3c08f6a0	0.008359581
86	0xba3a65a2	-0.00071104814
87	0x3b8e8463	0.004349278
88	0x3c56db58	0.013113819
89	0x3b26f9c5	0.0025478464
90	0x3c46d8de	0.012136666
91	0x3b8253e2	0.0039772848
92	0x3c0e380c	0.008680355
93	0xb95fbdc9	-0.00021337638
94	0xbb6800ae	-0.0035400796
95	0x3ba3a7da	0.0049943747
96	0x3b179290	0.002312813
97	0x3b004932	0.0019574878
98	0x3c82c365	0.015962312
99	0xbae44bc9	-0.0017417605
100	0x3c0410fb	0.008060689
101	0x3c2bcacf	0.010485365
102	0xbb0b9bd1	-0.002130259
103	0x3bc5b3a6	0.0060333787
104	0xba30459e	-0.0006724241
105	0xbae59d7f	-0.0017518251
106	0x39af3b8e	0.00033422973
107	0x3b24172c	0.0025038226
108	0x3b1919db	0.0023361358
109	0xb9204b1c	-0.0001528677
110	0x3b97fc7c	0.004638253
111	0x3a198a77	0.00058571197
112	0x3bed15de	0.007235273
113	0x3c22d3cc	0.009938192
114	0x3c94ece4	0.018179365
115	0x3729113e	1.00771995e-05
116	0xbc027930	-0.007963464
117	0x3b2ef2cb	0.002669501
118	0x3b24f051	0.0025167654
119	0xba3cb714	-0.00071989116
120	0xba4b4b5f	-0.00077550666
121	0xbbc5ff03	-0.0060423627
122	0x3ad0d126	0.0015931472
123	0x3ad9d059	0.0016617879
124	0xbb5b12bf	-0.0033427922
125	0xb9915f8e	-0.0002772775
126	0x3bec33c0	0.0072083175
127	0x3bc71f39	0.00607672
