weights/gen_modelWeights0090/arr_23.npy (npy, 2128 bytes, 1 tensors)

array f4 [512]
000000 ea 43 22 3e d5 87 34 3e a4 41 df 3b 65 72 3c bb
       0.1584622 0.17629941 0.006813245 -0.0028754708
000010 0f 8d 49 3e 53 90 73 bd 36 53 40 bd ad ff 17 3e
       0.19682716 -0.05946381 -0.046954356 0.14843626
000020 4e 3f c2 bd b8 ea fc 3b c8 bd 21 be 66 88 3c bc
       -0.09484731 0.0077184103 -0.15795052 -0.011507129
000030 ba ea bf bd e0 54 91 3d 69 08 fc 3c 8c 02 a1 3e
       -0.093709424 0.07096267 0.030765729 0.31447256
000040 54 38 9f be ca 49 bd 3d fb 4c ab bc ab 31 d7 bd
       -0.31097662 0.0924259 -0.02091073 -0.1050752
000050 f1 e0 f3 3d f3 cd c2 3c 7e 05 2f be a9 aa 14 3c
       0.119081385 0.023779845 -0.17091939 0.009073892
000060 0c 87 bb bd 04 ec 70 3e 3e 4e 3c 3b 94 a8 59 bd
       -0.091566175 0.23527533 0.002873316 -0.053139284
000070 e3 75 f2 3d c8 a2 91 be 08 1a 2d 3e 11 f9 44 3e
       0.11838891 -0.28444505 0.16904461 0.19235636
000080 2f 30 9a 3b 7b 9c 4e 3e 44 aa 7d 3e d3 33 31 bd
       0.004705451 0.2017688 0.24771982 -0.043262314
000090 89 2d 0f bc 12 96 89 3e 94 09 f7 bd 32 3d 3f bd
       -0.008738884 0.26872307 -0.12062374 -0.04668922
0000a0 d1 1c b3 3e 5b 86 ba 3e f0 21 8e b9 d8 c2 08 bc
       0.34982923 0.3643063 -0.00027109636 -0.008347236
0000b0 d1 79 0f 3c 2c 9d b2 3d 98 9a 00 3d 05 3b d5 bd
       0.008757071 0.087213844 0.031397432 -0.10411648
0000c0 a2 36 ae be e6 08 d2 bc a2 bc 64 3e 74 4e 8b bb
       -0.34026057 -0.025639009 0.22337583 -0.0042512957
0000d0 52 1a 66 3c 71 21 02 3d 81 92 d3 bd 85 b6 95 3e
       0.014044361 0.031770173 -0.10330678 0.29240814
0000e0 8c b9 21 3e 44 4a 00 bf cf 4e 22 3e 1c 3b 7a 3c
       0.15793437 -0.5011332 0.15850376 0.015272882
0000f0 52 37 27 3e 95 e1 89 bc f9 9e 04 3d da 22 53 3e
       0.16329697 -0.016831199 0.03237817 0.20618764
000100 5a 4d 12 3d a3 8f fe 3d 82 f5 af 3d 80 39 38 3d
       0.0357183 0.1242974 0.08591749 0.04497671
000110 42 78 b7 3e b1 2d 41 3e 42 1f 60 3d 60 43 51 3e
       0.35833937 0.18865086 0.05471731 0.20435858
000120 b2 17 1d 3e ac 55 a6 bd 7a 55 2d bd b8 ee fb 3c
       0.1534107 -0.08121809 -0.042317845 0.030753478
000130 93 1c be bc 67 eb 13 3d fd cf 04 3a 3c 57 b7 3d
       -0.023206985 0.03611317 0.0005066393 0.089521855
000140 64 18 5b 3e 6b df 89 3c 64 ac 91 3e d8 53 88 3d
       0.21396023 0.016830167 0.28451836 0.06656617
000150 6f 18 b7 3d af 66 fb 3d ac 04 04 bf 30 3a aa bd
       0.08940207 0.12275445 -0.5156963 -0.0831188
000160 79 e7 53 be 0b 17 28 3f 99 f5 e1 3c 0e e8 13 3d
       -0.20693769 0.6566016 0.02758293 0.036109976
000170 d6 66 15 bc be ba 11 3d 95 57 97 bd 8e 4a ec 3d
       -0.009118756 0.03557848 -0.07389752 0.11537658
000180 50 3c 54 3e b3 b9 be bd 23 50 90 bd f2 c0 32 bf
       0.20726132 -0.09312763 -0.07046535 -0.6982566
000190 1d 3a 3f 3e 1d bc e4 bc d1 08 4b be 6d c4 a5 3e
       0.18674512 -0.02792173 -0.19827582 0.32376423
0001a0 25 aa cd bb 82 3f e7 3d c0 ba 8d 3b 14 9e ab 3e
       -0.0062763863 0.1129141 0.004325241 0.33519042
0001b0 94 71 23 bf fc 3c 28 be 0a c3 1e 3e c5 55 66 3e
       -0.6384518 -0.16429514 0.15504089 0.22493656
0001c0 de d3 08 3d 8b 42 97 3c a0 c2 67 3b f1 a6 b9 bd
       0.033405177 0.018464347 0.0035363808 -0.09065045
0001d0 8d 5a 5d 3d 6e 8a 08 3d 52 6c 54 3d c8 2e b8 be
       0.054041434 0.03333514 0.051861115 -0.3597319
0001e0 6c 4e b8 bc 66 10 1f 3e 1e ed 58 3e f9 42 fd 3d
       -0.022498332 0.155336 0.21184203 0.1236629
0001f0 5f 5b a9 3e 89 15 3f 3c f7 9c 90 3e c9 63 b7 bd
       0.33077523 0.011662849 0.28244755 -0.089545794
000200 4e a2 2b 3d 69 da 2b bd a0 81 bb 3d 3f d8 07 bd
       0.041902833 -0.04195634 0.091555834 -0.033165213
000210 0f 5d 27 3d c9 2d 04 3e a7 71 19 bd 21 dc 06 bc
       0.040860232 0.1290809 -0.037461903 -0.008231194
000220 c2 a4 91 bc 31 af ca 3d 58 f4 03 3c 8a dc ce bc
       -0.017778758 0.09896696 0.008053862 -0.025251646
000230 f4 39 17 3e af 29 20 bd 82 00 d8 3d a5 e5 8a 3d
       0.14768201 -0.039102253 0.10546972 0.067820825
000240 73 53 eb bd b3 a6 2e 3c 6c 1d d5 3e a1 1b 1f 3e
       -0.11490526 0.010659861 0.4162401 0.15537883
000250 52 9f c7 3c 4f 3d 57 3e f3 90 05 3e 3b e6 79 3e
       0.024367962 0.21019481 0.13043575 0.24404232
000260 62 d3 c4 bc a9 cc ba 3b 74 4e 1e 3e 0a fe 85 3d
       -0.024026576 0.005700667 0.15459615 0.06542595
000270 65 1c 41 3e e9 99 3f 3d b7 e7 36 3d 09 0f 2b 3d
       0.18858488 0.04677764 0.044654574 0.041762386
000280 59 52 46 3d 10 32 0b 3b 31 bb a3 3d cd ab 44 3e
       0.048418377 0.0021239556 0.07994688 0.19206162
000290 fb ae 10 3e da e7 b4 3c 3c 40 50 bd 19 5c b7 3e
       0.1412925 0.022083212 -0.05084251 0.35812452
0002a0 5c c4 3b bd f4 fb c6 bd ba 74 61 3e 3d 08 8a bc
       -0.04584156 -0.09716025 0.22017184 -0.016849631
0002b0 3a 91 1b 3e 22 06 31 3e 8f 32 8c 3b e1 23 8a bd
       0.15192118 0.17287496 0.004278488 -0.067451246
0002c0 a2 1d 6b bd 3f f1 79 be 26 e5 5b 3d 1f d0 17 bc
       -0.057401307 -0.24408434 0.05368533 -0.0092659285
0002d0 52 e1 4e 3e 94 e2 1b 3d f4 25 20 3e 29 79 e6 3d
       0.2020314 0.03805788 0.15639478 0.11253578
0002e0 b9 1a e6 3d 88 d0 be bc 9c e5 b4 3c 02 7c 91 3c
       0.11235566 -0.023292795 0.022082143 0.017759327
0002f0 55 84 a4 3d 97 44 85 3e eb 35 88 bc fe 6e 56 3e
       0.08033053 0.26028892 -0.016627273 0.20940778
000300 6c 54 16 bf 3e bc 43 3e 35 5b 94 3d 9a 06 e9 3c
       -0.5872257 0.19114777 0.07243959 0.02844553
000310 2a b7 2b 3e af 71 3f bd 98 52 bc 3d 0c fb ed 3c
       0.1676909 -0.046739276 0.09195441 0.029050373
000320 ff 04 0e 3e 8f 8c e0 ba c6 b3 80 3e 28 92 4c bc
       0.13869093 -0.0017131733 0.25137156 -0.012486018
000330 b4 a8 25 3e d2 77 a5 bd 45 a5 93 3e 55 83 29 3d
       0.16177636 -0.080794945 0.28837028 0.041385014
000340 6e ff b3 3e db fe 63 bc aa 49 53 3c 57 3e 0d 3e
       0.35155815 -0.013915743 0.012895981 0.13793312
000350 ea 62 dd 3d 39 50 f8 38 a7 36 e2 bd ad b0 11 3e
       0.10809882 0.00011840504 -0.1104558 0.14227553
000360 8a 93 2a 3e 93 c4 3d bd b0 a6 70 bc 55 65 1f 3d
       0.16657844 -0.046330046 -0.014688179 0.038914997
000370 12 b0 ff bd aa e4 40 3e 6d c6 f1 3a be ac d5 bd
       -0.124847546 0.18837228 0.0018445976 -0.104333386
000380 e8 34 08 3d 64 98 a3 be c2 7b 31 3f 99 00 68 3d
       0.03325358 -0.31952202 0.69329464 0.056641195
000390 01 71 96 3c ee 8d 6e 3b d7 c3 05 3e 25 0f 7b 3c
       0.018364431 0.0036400515 0.13062988 0.015323435
0003a0 8c ed 53 be f8 39 27 3e cf b1 aa bb 0c aa ee 3d
       -0.20696086 0.16330707 -0.0052091847 0.116535276
0003b0 01 ba 59 3e b0 45 cd bd 1f ca 05 3c 71 d4 7b bc
       0.21262361 -0.100230575 0.008165865 -0.015370474
0003c0 5c c4 1d bd 5e 58 87 3c 92 0a f2 bd 8a 8c 2b 3e
       -0.03851734 0.016521629 -0.118184224 0.1675283
0003d0 76 3f 13 be d2 db a9 bd 87 88 6b bc e7 c7 07 3d
       -0.14379677 -0.082938805 -0.014375812 0.033149626
0003e0 b0 ef 87 3d f7 7f f9 3d df 6f 14 3e 15 a5 aa 3c
       0.06637514 0.121826105 0.144958 0.02083067
0003f0 e9 45 51 3e 79 a4 75 bd d7 aa eb 3e 02 99 f3 3d
       0.20436825 -0.059971306 0.46028778 0.11894418
