weights/gen_modelWeights0090/arr_50.npy (npy, 147536 bytes, 1 tensors)

array f4 [64, 64, 3, 3]
0	0x3c0cf08d	0.008602274
1	0x3ce513e7	0.027963592
2	0xbc8e7611	-0.017390283
3	0x3d050560	0.03247583
4	0x3d0a675d	0.03378998
5	0x3d1b93bf	0.0379827
6	0xbb1a1a4f	-0.0023514216
7	0xbc871700	-0.01649046
8	0xbcb86d44	-0.02251304
9	0xbca75ff3	-0.020431494
10	0x3ca8952a	0.02057894
11	0x3ccd8889	0.02508952
12	0x3ce738a5	0.028225252
13	0x3c128eff	0.008945226
14	0xbc8904ad	-0.016725862
15	0xbcc6c9fb	-0.024266234
16	0xbc1418aa	-0.0090390835
17	0x3cae3c8c	0.021269105
18	0xbc86e40d	-0.016466165
19	0x3cdd4044	0.027008183
20	0xbc82c38d	-0.015962387
21	0xbc80d1a9	-0.015724974
22	0xbb90a1dc	-0.0044138264
23	0xbc34dd91	-0.011039154
24	0xbce4de8f	-0.027938155
25	0xbd0505d6	-0.03247627
26	0xbd0ff0a4	-0.035141602
27	0x3cf7a6a5	0.03023083
28	0xbbdbc13c	-0.006706385
29	0xbbb88cbc	-0.005632011
30	0xbd060357	-0.03271803
31	0xbce7d345	-0.028298983
32	0xbd114431	-0.035465423
33	0xbd11f8e6	-0.03563776
34	0x3d060096	0.032715403
35	0xbc6b53e1	-0.01436326
36	0x3be48cca	0.006974791
37	0xbc9a3a79	-0.01882671
38	0xbd2629e4	-0.040567294
39	0x3ba086fe	0.004898905
40	0xbb8f2ba8	-0.004369218
41	0x3d0266c9	0.031836305
42	0x3c92758d	0.017878318
43	0x3b0e4587	0.0021708922
44	0xbbc996e8	-0.0061520226
45	0xbb9895a8	-0.0046565123
46	0xbbb36db5	-0.0054757246
47	0x3c9bbba8	0.01901038
48	0xbcd802ae	-0.026368465
49	0xbd159084	-0.036514774
50	0xbd39e973	-0.04538865
51	0xbbf5baed	-0.00749909
52	0xbc84978d	-0.016185546
53	0xbd089709	-0.033347163
54	0x3d138ee5	0.036024947
55	0x3cc63c98	0.024198815
56	0x3bf134af	0.0073610167
57	0x3c7c789e	0.015409617
58	0x3b3af6f4	0.0028528543
59	0x3d11d198	0.035600275
60	0xbb83b584	-0.004019441
61	0xbca38152	-0.019959126
62	0x3c999414	0.018747367
63	0x3c36c71a	0.011155868
64	0x3cad836c	0.02118083
65	0xbcc355f9	-0.023844706
66	0xbc4c844b	-0.012482713
67	0xbce56be3	-0.028005546
68	0x3d02e031	0.031952087
69	0xbc252be3	-0.010081264
70	0x3c461855	0.012090762
71	0xbccb7542	-0.024836186
72	0xbcb1f186	-0.021721613
73	0x3cbb7fe0	0.022888124
74	0xbd248451	-0.04016525
75	0x3c0b5bd3	0.008505779
76	0xbbb9612d	-0.005657336
77	0xbd042c89	-0.032269035
78	0x3d5b2866	0.053505324
79	0x3d213c6d	0.039364267
80	0xbd45d813	-0.048301768
81	0x3cf1cbde	0.029516157
82	0xbd0b5a39	-0.03402159
83	0xbca30e6f	-0.019904343
84	0xbc5804f4	-0.013184775
85	0x3d1f5d9a	0.038907625
86	0x3c2874ee	0.010281784
87	0x3ca5da0b	0.020245573
88	0x3c6fee5f	0.014644234
89	0x3b78a125	0.0037937847
90	0x3c7bfd6b	0.015380244
91	0xbcedbd65	-0.029020974
92	0xbcfaa5d6	-0.030596655
93	0xbb258cb7	-0.0025260875
94	0x3c341492	0.0109912325
95	0x3d1dc609	0.03851894
96	0xbd165f1d	-0.0367118
97	0x3c19918e	0.009373082
98	0xbbf0cd3e	-0.0073486855
99	0x3c6a0ee9	0.014285781
100	0x3cad3a14	0.021145858
101	0x3cee9bf4	0.029127099
102	0x3cc83a13	0.024441754
103	0xbd00744b	-0.031360906
104	0x3c8307e1	0.015994968
105	0xbbc8a04b	-0.006122624
106	0xbcb124b5	-0.021623949
107	0x3c66f26c	0.014095884
108	0xbd2af868	-0.041740805
109	0xbd3bf004	-0.045883194
110	0x3d0e531f	0.03474724
111	0x3d43880c	0.047737166
112	0x3d604b4f	0.05475932
113	0xbd1d7c9f	-0.038448926
114	0x3d5e2a3a	0.05423949
115	0xbc8dba2c	-0.017300688
116	0x3d35a3de	0.04434573
117	0x3ccb04eb	0.024782619
118	0x3c3995a2	0.011327179
119	0x3cc79f68	0.024368003
120	0xbc8a05c1	-0.016848447
121	0x3cd44588	0.025912061
122	0x3cfa3921	0.03054482
123	0x3d380968	0.044930845
124	0x3bc54d86	0.0060212044
125	0xbcc5b6ff	-0.02413511
126	0xbca5c585	-0.020235786
127	0x3d167e32	0.036741443
128	0xbcbafbeb	-0.022825202
129	0xbd168aa2	-0.036753304
130	0xbbd9784e	-0.006636656
131	0x3c5bea2e	0.013422532
132	0x3d0e3577	0.034718957
133	0x3cad100e	0.02112582
134	0xbd1c305f	-0.038132068
135	0x3c0b9827	0.008520163
136	0xbc93c8b6	-0.018040042
137	0xbc916d39	-0.017752277
138	0x3cc28503	0.023745066
139	0x3bb8813b	0.00563064
140	0x3c613104	0.013744596
141	0xbba97546	-0.005171451
142	0xbc13001b	-0.008972193
143	0x3c8774ef	0.01653525
144	0x3d390358	0.045169204
145	0xbcaa6a4c	-0.02080264
146	0x3d2550e3	0.040360343
147	0x3ce04c09	0.027380006
148	0xbce1cea6	-0.027564358
149	0x3c928d73	0.017889714
150	0x3d158f69	0.03651372
151	0xba0bf0de	-0.0005338321
152	0x3b957b56	0.004561822
153	0xbd095413	-0.033527445
154	0xbca1bf98	-0.01974468
155	0x3bd1fa0a	0.006407981
156	0xbd05109d	-0.032486547
157	0x3c0f91e2	0.0087628085
158	0xbafe0791	-0.0019380917
159	0xbc1bdca4	-0.009513054
160	0xbcab2d40	-0.0208956
161	0xbbdc8edc	-0.0067308974
162	0x3d1691ef	0.036760267
163	0x3d3d5fa2	0.04623378
164	0xbca9402b	-0.02066048
165	0x3d38eb9c	0.04514657
166	0xbcc0c001	-0.023529055
167	0xbc68f56f	-0.014218672
168	0x3d22122d	0.039568115
169	0xbd5fdfe0	-0.054656863
170	0xbcbbc61d	-0.022921616
171	0x3cc521bb	0.024063936
172	0x3cbb6682	0.022876028
173	0x3cf558fa	0.029949654
174	0xbd262f3c	-0.04057239
175	0xbac1782e	-0.0014760548
176	0xbd5a50c7	-0.05329969
177	0x3d55ec2e	0.05222719
178	0xbcb725ef	-0.022356955
179	0x3be81494	0.007082531
180	0x3cd65854	0.026165165
181	0x3ce00fbd	0.027351255
182	0x3cf704a3	0.030153578
183	0x3c0374b0	0.008023426
184	0x3cad6bd0	0.021169573
185	0xbcdd505f	-0.027015863
186	0x3d1654ea	0.036702074
187	0x3b578d88	0.0032890756
188	0x3c2e8ad9	0.010653221
189	0xbc8d2181	-0.01722789
190	0x3d3759b6	0.04476329
191	0x3c81e506	0.015856277
192	0xbc99166f	-0.018687455
193	0xbd216264	-0.039400473
194	0xbc5dd144	-0.013538662
195	0x3b4e5606	0.003148438
196	0x3cfb572f	0.03068122
197	0x3c6e69bc	0.014551576
198	0xbd146bf4	-0.036235765
199	0xbcb661cf	-0.022263436
200	0xbc051f13	-0.008125084
201	0xba023527	-0.0004967027
202	0x3ce5a35d	0.028032
203	0xbd1106d5	-0.035406906
204	0x3c6ca71c	0.014444139
205	0xbbf861d7	-0.007580023
206	0x3ca9c647	0.020724429
207	0xbd16d22b	-0.036821526
208	0xbc940502	-0.018068794
209	0xbb675161	-0.0035296308
210	0xbcf31b39	-0.029676067
211	0x3caae1da	0.020859648
212	0x3d18d683	0.03731395
213	0x3d6d4cec	0.057934687
214	0x3ae30910	0.0017321426
215	0x3d353168	0.04423657
216	0xbd19e7a7	-0.037574437
217	0xbd0a5b46	-0.03377845
218	0xbb349ef1	-0.0027560557
219	0xbcf384a3	-0.029726332
220	0x3d0b5237	0.034013953
221	0xbd1baaed	-0.038004804
222	0x3c874f8b	0.016517421
223	0xbd0696fe	-0.03285884
224	0xbcbc1434	-0.022958852
225	0x3d5b52a1	0.053545598
226	0x3d0566bc	0.03256868
227	0xbd36cea3	-0.044630658
228	0xbd2cefda	-0.042220928
229	0x3b2df129	0.0026541448
230	0xbc150553	-0.009095508
231	0x3cfa31a0	0.030541241
232	0x3cb3d367	0.02195139
233	0xbce531d4	-0.027977861
234	0xbc8bd84c	-0.017070912
235	0x3c981cc1	0.018568398
236	0xbc0e0922	-0.00866917
237	0xbd1a8c5a	-0.037731506
238	0xbc7a2545	-0.015267675
239	0xbba476b7	-0.0050190347
240	0x3c4c7677	0.012479416
241	0xbd196401	-0.037448887
242	0xbbdfae0a	-0.006826167
243	0xbc98a5d5	-0.018633762
244	0xbc9b2ef7	-0.018943293
245	0x3d130309	0.035891566
246	0x3d1cd2f4	0.038287118
247	0x3d1cf13a	0.03831599
248	0xbd63dd85	-0.05563118
249	0xbd01aaac	-0.031656906
250	0xbcd77952	-0.026302967
251	0xbd0ce6de	-0.03439986
252	0xbcee224f	-0.029069094
253	0xbcb6bf02	-0.022307876
254	0x3a13c5f8	0.00056371046
255	0x3c880246	0.016602647
