weights/gen_modelWeights0090/arr_43.npy (npy, 1104 bytes, 1 tensors)

array f4 [256]
000000 c5 ab d4 ba 73 10 11 3c cd 0c 0c 3b ee e1 60 3b
       -0.0016225508 0.008854019 0.0021369935 0.0034314352
000010 d7 bb c1 3b 53 05 42 3b 4e b9 43 ba f3 fd ac 3b
       0.005912285 0.0029605224 -0.0007466272 0.0052792965
000020 76 13 96 3b 3f a7 5c bb 00 ca bb b7 88 a7 8a bb
       0.0045799566 -0.0033669022 -2.23862e-05 -0.004231397
000030 7d 89 ea 3a 84 38 b3 3b 09 fd d1 bb 4d 81 49 ba
       0.0017893758 0.0054693837 -0.006408338 -0.0007686809
000040 1f 24 16 3b 23 6c a7 39 98 a6 ab 39 39 c8 e4 b9
       0.0022909713 0.0003193329 0.00032739784 -0.00043636726
000050 03 7b 93 3b c3 e9 36 ba 55 13 ae ba cd ff a9 b8
       0.004500748 -0.0006977582 -0.0013280908 -8.1061946e-05
000060 a7 c3 d6 ba 67 bf 82 3b d3 3e 89 b7 25 55 3c 3b
       -0.0016385213 0.003990102 -1.6360927e-05 0.0028737274
000070 9e 2c 4b b7 97 58 d6 b8 2b 8a 5a 3b 15 ab ee ba
       -1.2110131e-05 -0.00010220816 0.0033346515 -0.0018208945
000080 fd 2d 5e 3a bb 9f 82 3b 67 92 8a 3b 11 9c 97 bb
       0.0008475481 0.0039863265 0.0042288783 -0.004626759
000090 1e c2 5e 3b a3 ab 96 b8 41 d8 2e 3b 01 57 06 3b
       0.0033990215 -7.184527e-05 0.002667919 0.0020498636
0000a0 af bd 3e 3a b3 66 e2 3b 8f b9 d3 3b df ac 6c 3b
       0.000727619 0.0069092154 0.0064613293 0.0036113781
0000b0 fa c8 c8 3a db 11 94 b9 c9 c9 d9 3b 31 75 1c 3b
       0.0015318685 -0.00028242063 0.006646369 0.0023873562
0000c0 c6 c1 e1 39 b4 21 7e 3a fe 6d 45 3b e9 ee eb 3b
       0.00043059717 0.0009694353 0.0030125375 0.007200111
0000d0 89 d8 a9 39 b5 b9 27 bb 5f de 81 3b a0 6d c6 3a
       0.00032395523 -0.0025592868 0.0039632763 0.0015138872
0000e0 5f d2 b4 ba c1 b0 d8 3b 10 95 ea 3b 92 40 cd 3b
       -0.0013795606 0.0066128676 0.007158883 0.006263801
0000f0 f5 cd 09 3c 2f 9f 48 3a e4 43 36 3b 8c 7c 75 b8
       0.00841092 0.0007653115 0.0027811462 -5.8528545e-05
000100 c6 96 c1 3b 98 8e 07 bb b8 0d d3 37 f1 3a ed 3b
       0.005907866 -0.0020684358 2.5159548e-05 0.0072396924
000110 3e 80 f5 3b 58 91 96 bb 56 37 c5 bb 77 64 3a 3b
       0.0074920943 -0.004594963 -0.0060185594 0.002844123
000120 a5 26 cf b8 8c 7b 64 3b 86 34 10 35 ee f4 0f 3a
       -9.877727e-05 0.0034863679 5.372061e-07 0.00054915145
000130 9b 2b 17 36 0a 80 5b ba e4 64 c1 bb a3 eb 3c 38
       2.2526135e-06 -0.00083732663 -0.0059019197 4.5042147e-05
000140 d4 e3 0b b8 13 05 81 b8 42 6d 83 3b 2b c1 92 35
       -3.3352364e-05 -6.1521445e-05 0.0040108273 1.0934067e-06
000150 9e 88 81 ba 8a 12 86 bb d6 35 2c 3a bd e0 1e 36
       -0.0009882634 -0.0040915655 0.00065693015 2.367465e-06
000160 d0 36 8a 3b a0 d7 b0 3b 07 e4 18 38 28 9f ff 3a
       0.00421796 0.0053967983 3.645199e-05 0.0019502388
000170 36 45 08 37 77 b0 19 3b eb f9 04 bb be 6f ce 39
       8.122346e-06 0.0023451129 -0.0020290564 0.00039374636
000180 82 57 cf 3a 29 5a 06 b8 05 f5 f8 3a a3 3e 66 ba
       0.0015818926 -3.2032058e-05 0.001899392 -0.00087831373
000190 bd 49 85 3b 9e 7e 5c 3b b9 46 17 3b 99 4c c1 3a
       0.004067628 0.0033644806 0.0023082925 0.0014747559
0001a0 58 4b 87 3a 99 2f 92 b7 17 53 34 35 d1 15 08 ba
       0.0010322137 -1.742672e-05 6.7176137e-07 -0.0005191239
0001b0 79 9a 3c 3a be 2b 8d 3b 13 da a8 3a fd dd f3 3a
       0.0007194649 0.004308193 0.0012882374 0.0018605586
0001c0 f4 8d aa 3a b6 9c 9d ba 3b 93 1c 3a 61 0d e8 3a
       0.0013012276 -0.0012024853 0.0005972867 0.0017704183
0001d0 e4 90 28 b9 ba e7 97 bb 98 84 b3 39 eb 7e 82 3a
       -0.00016075704 -0.0046357783 0.0003424033 0.0009956037
0001e0 a5 b1 f1 ba 80 fc 96 ba 5f 65 cc 39 10 41 14 3c
       -0.0018439783 -0.0011519343 0.0003898544 0.009048715
0001f0 9d 61 23 3a e9 cd cd 3b 73 34 59 3b 0a 2f 2b 3b
       0.0006232502 0.00628065 0.0033142834 0.0026120567
000200 55 02 70 ba 5c 3f 3a 3b 6f 17 58 3a bf 10 81 3b
       -0.0009155621 0.0028419113 0.0008243238 0.003938764
000210 18 fb ad ba f4 50 ce 3a 40 09 08 3c d3 67 18 3b
       -0.0013273684 0.0015740679 0.008302987 0.0023255243
000220 2b fb 61 b6 f8 5e 1d ba 59 f2 ac ba 07 73 d0 38
       -3.3673812e-06 -0.0006003226 -0.0013194784 9.9396384e-05
000230 8f de 90 3b b2 08 08 ba 52 c1 c1 3b 16 dc ba 3b
       0.0044210623 -0.0005189284 0.005912938 0.005702506
000240 c8 a0 da 3b 2d 6f 1c b9 d7 20 cb ba b0 c6 c0 3b
       0.0066719986 -0.00014918736 -0.0015497458 0.0058830604
000250 88 65 7f b9 e9 2e 42 3b 9c 02 c4 3a d4 49 5b ba
       -0.00024356518 0.0029630011 0.0014954391 -0.0008365188
000260 ab a7 e9 3a c0 58 b4 39 c2 d3 60 ba ea 4a b3 ba
       0.0017826458 0.000343984 -0.0008576476 -0.0013678942
000270 f3 2c d5 b9 01 02 7c b8 b5 57 19 b8 f9 8c 04 b8
       -0.00040660016 -6.008335e-05 -3.6559726e-05 -3.1602543e-05
000280 51 45 6a 38 8c 46 14 b9 5c 1e bc 3b 2a 78 b5 3a
       5.5854503e-05 -0.0001414066 0.005740924 0.0013845016
000290 af a7 4c 3a f8 68 4a 3a d4 1d af 3b 5c c2 49 bb
       0.0007806969 0.000772133 0.005344132 -0.0030786013
0002a0 4f ad ba 3b 9d 4e a3 ba 16 3a 9f b5 b4 aa 69 b9
       0.0056969295 -0.0012459342 -1.1863328e-06 -0.00022284203
0002b0 36 bb c1 3a b3 15 09 3b ce b0 3e bb 02 15 8a bb
       0.0014780525 0.0020917475 -0.0029097083 -0.00421393
0002c0 64 80 f7 38 fe 4e ca b8 ed 99 3e 3b aa c6 d4 3b
       0.000118017924 -9.646824e-05 0.0029083446 0.006493409
0002d0 3e 42 e3 39 4d a5 88 37 ee c1 6e 3b 2e a4 be 39
       0.00043346168 1.6289438e-05 0.003643151 0.00036361947
0002e0 8c fd 29 3b 21 1a 8b 3a 44 e7 52 3b de 75 a8 b6
       0.002593848 0.0010612645 0.0032181302 -5.0205117e-06
0002f0 f0 26 02 3b b3 9b b1 b9 9e 2f b1 3b 29 60 b0 b8
       0.0019859634 -0.00033876076 0.0054072877 -8.410245e-05
000300 e4 e3 2b b9 da f1 25 b9 9d ad 94 3b 39 fe 0f ba
       -0.00016392727 -0.00015825723 0.004537298 -0.0005492899
000310 2d c7 6d 39 86 0a 85 3b 25 43 60 3b 09 d4 3c 3a
       0.0002267628 0.0040600924 0.0034219709 0.00072032266
000320 19 35 67 39 c0 12 e1 3a 90 7a 44 ba 01 4e 95 3a
       0.00022049657 0.0017171726 -0.000749507 0.0011391045
000330 74 d6 17 3c 9b 2c 05 ba af 4e 9c b9 07 63 d9 3a
       0.009267438 -0.0005080194 -0.00029813263 0.0016585299
000340 5a 68 16 37 c1 32 87 3b 7c 66 39 3b 32 7f d8 39
       8.964993e-06 0.0041259234 0.0028289845 0.00041293498
000350 05 f1 c6 b9 88 c3 8f 3b 0b 65 60 3b e3 fa 00 3c
       -0.00037945076 0.004387323 0.0034239914 0.007872316
000360 5d 49 17 3c 2c 6b 53 3a 5a 0e e5 3a 36 72 ad 3a
       0.0092338 0.0008064981 0.001747559 0.001323289
000370 83 0c b6 3a ec 0c ba b7 90 80 0a 3b 4a db f1 3a
       0.0013889227 -2.2178945e-05 0.0021133758 0.0018452194
000380 48 e8 b0 3b a7 9c 5e 3a 9c a4 9a 3b 8c a7 b4 3b
       0.005398784 0.0008491971 0.00471933 0.005513137
000390 cf 6d 3d b2 ea 5a ea 3a c6 b0 b7 3a b1 8e 85 b9
       -1.10262155e-08 0.0017879878 0.0014014475 -0.0002547405
0003a0 12 0d 59 36 d0 2a 1b 3a d6 fb 18 3c e6 b7 5f b6
       3.2343128e-06 0.00059191603 0.009337386 -3.3336632e-06
0003b0 93 4d 8a 3a f4 1d dc 3a 3c 88 a9 b9 e6 c4 d2 39
       0.0010551683 0.0016793595 -0.00032335694 0.00040201022
0003c0 3e 47 3b b8 40 c9 06 3c 9b 40 2e 3b 5e bf 82 3a
       -4.4650624e-05 0.008226693 0.00265888 0.0009975245
0003d0 88 e6 e5 3a 39 14 87 3b af 07 f0 ba 12 95 6a 3b
       0.0017540017 0.004122284 -0.0018312837 0.003579442
0003e0 ce df 84 3b 5b 7f de 39 9d f4 df 39 bb b4 52 b9
       0.004055 0.00042438027 0.00042716126 -0.00020094488
0003f0 56 62 97 3b 4d 72 0f 3b 9c 0a dc 39 67 45 d1 39
       0.004619877 0.0021888197 0.00041969575 0.00039915295
