weights/gen_modelWeights0090/arr_45.npy (npy, 592 bytes, 1 tensors)

array f4 [128]
00000000: d435 cb38 196c 6b3b d045 a0bb 3e06 ad3a
00000010: fc10 023c e8f4 26b9 b4c8 30b8 0bf2 8f3b
00000020: c8f8 3b3c b0b1 5b3c c747 823a a8c9 003c
00000030: 3668 82b9 2bc9 ae3a 541b 263c 153b 26bb
00000040: a755 fc3a 5464 1bb9 1003 243b e00b 2e3b
00000050: 3e26 8f3b d056 39ba ff59 983b 5eca 473a
00000060: 8e25 b4b7 c314 433b f941 c53b 537b 8639
00000070: 3e2b 343b c0c6 21b9 a46b d13b 0e1a 30bb
00000080: bfc5 5cb9 ca7f 063b 69a4 e4ba a5d7 e23b
00000090: 4a64 1eb8 ad52 23ba 04d8 d6ba 7f24 f439
000000a0: 26b4 83bb becb b33b a334 d63b 842a 9a3a
000000b0: 89a7 f238 af9f 58b9 0aa6 18b8 d250 ed3b
000000c0: b616 f837 c2b1 4d3a d01a 7c3b 4377 d93b
000000d0: a4d4 c73b 2793 503b 1c3e e3b9 148f 2e3c
000000e0: 7622 e13b 1768 473c cea0 653b be1b bb38
000000f0: ee0f 22ba 21a8 a03a 01f6 863b 0081 243c
00000100: 0a39 d73b 867c 31ba 819d b1b9 6f3b 5eba
00000110: 5359 9c3b 0505 a33b 24c5 e1bb 9be8 7c3b
00000120: 3ba8 e1b8 6b24 473a 7f29 0eb9 7d8f 08ba
00000130: 6cc6 a9b9 265f 913b 8f89 f83b 16c4 89b7
00000140: a947 4339 7974 623b ee9e 793b f10c 593a
00000150: cafb bc3b f3d4 473b 6c87 07b7 30b3 073a
00000160: f6de 093c 4ca5 ee3a 728f 30bb fe90 193c
00000170: fdaf 16ba ad12 c0b8 26d5 603b ea67 18ba
00000180: d895 463c d7ca df3b c94c 123c a114 2b3b
00000190: 15cf 013c dbd2 313b 3c13 7f3b 823d 103a
000001a0: fe59 6c3b 8978 7037 3ac3 e33b 7318 883b
000001b0: 42ed aeba 6096 ad3b f405 a33a f837 623b
000001c0: e133 3a3c fe70 0339 933b cf3b 25da f4b8
000001d0: 8a01 163c 1f20 cf3b 2f5d f53b c0d4 36b7
000001e0: d9ed a73a 10c1 873b 7c79 87bb 3fcb a33a
000001f0: 0853 8bb9 5436 283c 28a0 8ab9 b430 d0b9
9.6898206e-05 0.0035922586 -0.004891135 0.0013200713 0.00793862 -0.00015922228 -4.214859e-05 0.0043928674
0.011472888 0.013409063 0.0009939604 0.007860579 -0.00024873175 0.0013335099 0.0101383515 -0.0025364805
0.0019251601 -0.00014819327 0.002502624 0.002655737 0.0043685725 -0.0007070126 0.0046494002 0.00076214026
-2.147516e-05 0.0029767014 0.0060198274 0.00025650355 0.0027491595 -0.00015428197 0.0063910056 -0.0026870999
-0.00021054501 0.0020522946 -0.0017444018 0.0069226795 -3.7763537e-05 -0.0006230276 -0.0016391282 0.00046566498
-0.004019278 0.0054869344 0.0065370365 0.0011761938 0.00011570665 -0.00020658852 -3.639426e-05 0.0072423005
2.957448e-05 0.00078466174 0.003846813 0.0066365316 0.006098347 0.003182599 -0.0004334309 0.01065423
0.006870563 0.012170813 0.0035038474 8.922022e-05 -0.0006182183 0.0012257138 0.0041186814 0.010040522
0.006568079 -0.00067705696 -0.0003387742 -0.0008477484 0.0047713905 0.0049749636 -0.006889956 0.0038590792
-0.000107601714 0.0007596674 -0.00013557634 -0.00052093697 -0.00032382028 0.0044363914 0.0075847576 -1.6422982e-05
0.00018623345 0.0034554286 0.0038089114 0.00082798215 0.0057673203 0.0030491918 -8.078157e-06 0.00051765423
0.008414974 0.0018207221 -0.0026940969 0.009372948 -0.000574827 -9.158752e-05 0.0034306734 -0.0005813824
0.0121206865 0.0068296003 0.00892944 0.0026104825 0.007922907 0.0027133736 0.0038921377 0.00055023294
0.0036064382 1.4333179e-05 0.006950763 0.004153305 -0.0013345855 0.005297467 0.0012437687 0.0034518223
0.011364908 0.00012535226 0.0063242405 -0.00011675459 0.00915564 0.006320968 0.007487915 -1.089758e-05
0.0012811973 0.004142888 -0.004134355 0.0012496485 -0.0002657401 0.010266859 -0.00026440737 -0.00039709138
