weights/gen_modelWeights0090/arr_02.npy (npy, 147536 bytes, 1 tensors)

array f4 [64, 64, 3, 3]
000000 63 35 2a 3e a0 18 59 3e 49 e3 c1 bb bf fb 4b 3e
       0.16621928 0.212008 -0.005916987 0.19920252
000010 5c 82 d4 bc fc b5 c9 bd 74 d2 36 bc 4b 21 d1 bd
       -0.025941066 -0.09849164 -0.011158574 -0.10211428
000020 77 f8 df 3c c3 25 1b 3c b4 d1 2b bb 9e 07 81 bb
       0.027340157 0.009469452 -0.0026217522 -0.0039376756
000030 71 bd b5 ba e6 b9 9c bb 36 2f 9a 3b 07 63 c9 bb
       -0.0013865662 -0.004782903 0.004705335 -0.006145838
000040 4e e6 2d 3b 04 62 1b 3c c0 92 81 3d d3 1e ba 3c
       0.0026534977 0.009483818 0.063268185 0.022719776
000050 70 80 fb bc 1f 85 af 3c f7 20 1c bd b6 82 bb bc
       -0.030700892 0.021425782 -0.038117375 -0.022889476
000060 eb 03 24 bc 80 e9 76 bc cf fb 18 3d b9 fa 66 3d
       -0.0100107 -0.015070319 0.03734952 0.05639145
000070 fe 35 1e 3e 5c 8a dd bb 53 d8 fb 3d 6c 0b 10 bc
       0.15450284 -0.0067608785 0.1229712 -0.008791786
000080 b9 ed e6 bd 97 20 55 3b 92 b9 b3 bd 3b 47 15 bd
       -0.11275811 0.0032520646 -0.08775629 -0.036444884
000090 f5 2e d0 3c b5 6f 73 bd 2e f8 06 bd f1 2c 60 bd
       0.025413016 -0.059432704 -0.032951526 -0.05473036
0000a0 04 4c 85 bd 79 fa 16 3c a7 79 83 bd 28 31 58 3d
       -0.065086395 0.009214991 -0.06419688 0.052781254
0000b0 64 5c 66 3d 8b 75 e7 bb 71 9b e5 ba 75 09 8f ba
       0.056240454 -0.0070635728 -0.0017517639 -0.0010912853
0000c0 38 07 c7 bb 06 68 ab b9 4b 09 cb bb 86 16 6c bc
       -0.0060738586 -0.00032693165 -0.006196176 -0.014409667
0000d0 3c d5 33 bc 15 12 ae bc 1d a6 25 bc 1e f7 c1 3c
       -0.010976132 -0.021248857 -0.010110405 0.023677405
0000e0 52 f0 36 ba 15 62 e7 3c 0b 11 8e 3c 0f 72 98 bc
       -0.00069785595 0.028245011 0.017342111 -0.018609075
0000f0 ab db 94 3c c1 54 1f bd 37 6b 0c bd ed 1d 0b bd
       0.018171152 -0.038899187 -0.034281936 -0.033964086
000100 eb 72 82 3c fa 88 eb 3c 4d 68 92 3c 13 0a df 3c
       0.015923938 0.028751839 0.017872 0.027226483
000110 b7 83 36 bd 60 f6 b5 bb 11 93 af bb d1 39 04 bd
       -0.044559207 -0.005553052 -0.005358108 -0.0322817
000120 76 80 53 bc 79 eb 0a bc 31 7d 9e 3a 3d b5 24 bc
       -0.012909045 -0.008478993 0.0012091753 -0.010052976
000130 a4 ff 61 3b ee a6 71 bb 47 8a bf bb 30 c1 3a bb
       0.003448465 -0.003687318 -0.0058453414 -0.0028496496
000140 05 38 82 bc d0 bf 25 bd 13 d3 99 bc 79 58 7e 3c
       -0.015895853 -0.04046613 -0.018777406 0.015524023
000150 a2 dc f7 bc e0 8f 09 3d a1 36 20 3d 17 44 d1 3c
       -0.030256573 0.033584476 0.0391146 0.025545163
000160 d8 9d b0 3c d4 7a 17 bc 13 ba 3a 3e 3d 54 47 3d
       0.02155964 -0.009245593 0.18235044 0.04866432
000170 b8 fc b6 bd bf 0a 3f 3d e7 c3 03 be 85 41 9f bd
       -0.08934921 0.046641108 -0.128677 -0.07776169
000180 d5 59 d8 bd ad f2 77 bd 56 16 f3 3d dd b8 ad 3c
       -0.10564009 -0.060534168 0.118694946 0.021206314
000190 e1 57 d8 bc 2e a7 dd bc c8 8b dc bc 88 e2 4a bd
       -0.026409091 -0.027057257 -0.026922122 -0.049532443
0001a0 47 4f 1b bc dc d7 40 bd 07 60 8d 3c 97 e4 1d 3d
       -0.00947935 -0.04708086 0.017257703 0.03854808
0001b0 0d 59 25 3b 6e e7 1a bc 3e 14 88 bb 40 02 45 bc
       0.002523008 -0.009454591 -0.0041528037 -0.012024462
0001c0 bd 42 38 bc 00 8b eb 3b 58 56 a4 bb e9 f0 0b 3c
       -0.01124638 0.007188201 -0.005015176 0.008541324
0001d0 95 9d af 3c 9e 29 3f 3c cf 1a 12 bc b7 5e ca bc
       0.021437446 0.011667637 -0.0089175245 -0.024703367
0001e0 12 2f 00 bc 0b 9f a2 bc f5 79 c3 3b f5 ab 97 bb
       -0.007823722 -0.019851228 0.005965466 -0.004628653
0001f0 50 34 78 bc 2d 86 d6 3a 08 9e dc bd c5 01 02 bc
       -0.015149191 0.0016366892 -0.107723296 -0.007934992
000200 f0 fe b6 3d 39 ca 0a bd 6c c6 1b 3e 65 7b 82 3d
       0.08935344 -0.03388426 0.1521241 0.06371192
000210 56 4f 8d 3d b8 48 33 3c 72 5d a2 bd aa 55 02 bc
       0.06899898 0.0109426305 -0.079279795 -0.007954994
000220 b4 08 cf 3c 38 d2 3c 3c 93 64 b7 3c 78 b4 6e 3c
       0.025272705 0.011524729 0.022386825 0.014569394
000230 bc d5 f2 bc 72 03 9a 39 90 46 fc bc 3e c0 0b bd
       -0.029642932 0.00029375736 -0.030795366 -0.034118883
000240 c3 d0 09 3c ef 92 1a 3c 17 33 bc 3b 01 3e 0c 3c
       0.008411589 0.009434446 0.005743395 0.008559705
000250 15 42 36 3c 6c d1 2d 39 46 0f ef 3b 1f dc 01 3c
       0.011124154 0.00016576581 0.007295522 0.007926016
000260 c1 4b a7 3b d4 a8 9a 3d 0b 41 4d 3d 69 ce c5 bc
       0.005105466 0.07551733 0.050110858 -0.024146276
000270 6e bd 3f 3d cb 0e 0a bd 5d 2c 08 bd ff 95 b4 bc
       0.046811514 -0.033705514 -0.033245433 -0.02204418
000280 03 f1 0e bd 55 19 01 3d 2c 62 67 bc 4d d7 4e 3c
       -0.034897815 0.0315183 -0.014122527 0.012624574
000290 22 ad 1b 3b 8c 16 a5 3b b5 e5 87 3c dc ef 85 bc
       0.0023754318 0.005038088 0.016589025 -0.016349725
0002a0 45 3c d6 3b 7c c9 36 bc 0c 53 ba bc 71 7a 71 bc
       0.0065379464 -0.011156436 -0.022744678 -0.014738665
0002b0 da 0b 41 ba 1e d9 dd 3b b0 0a 84 ba 92 db 4d 3c
       -0.0007364132 0.006770267 -0.0010073986 0.012564557
0002c0 3f e5 21 3b fb bb 47 3c 44 94 51 3b 71 a6 31 bc
       0.0024703292 0.012190814 0.0031979242 -0.010842905
0002d0 ab 21 b5 3d 0a 0a ac 3d f9 44 0c bd 3d 01 93 3d
       0.08844312 0.08400352 -0.034245465 0.071779706
0002e0 3e 8e 29 bd 00 23 b0 bd 64 91 15 bd cf 37 ac bd
       -0.04139542 -0.08600426 -0.03651561 -0.08409082
0002f0 1d 66 8f bc cb 30 0a 3e f2 4c 06 3e f8 e3 d7 bc
       -0.017504746 0.13495176 0.1311529 -0.026353821
000300 1d 3b 04 3e 43 f0 32 bd cc 24 bd bd 42 0b 06 bd
       0.12913175 -0.043686163 -0.09235534 -0.03272558
000310 a6 ce ba bd 5d 8c 22 3c 48 2a c1 3a 20 d5 8a 3b
       -0.09121446 0.0099211605 0.0014737332 0.0042368323
000320 99 21 03 3b 7c ca 09 3b 10 1c 38 3b 98 a9 a8 bb
       0.002000904 0.002102523 0.0028092898 -0.0051471703
000330 01 0c e1 bb f8 0f f7 bb 4a f6 05 bc fb a4 ad bd
       -0.006867886 -0.0075397454 -0.008176396 -0.08478733
000340 4d 2b 5e bd 41 64 8e 3d a2 58 aa bd c0 f5 a8 3d
       -0.054240514 0.06952716 -0.083176866 0.08249998
000350 80 1d 02 3e 31 f8 f2 3c a6 81 de 3d 01 48 e8 ba
       0.12706566 0.029659363 0.10864572 -0.0017721654
000360 fc 4c 71 3c 41 98 3f 3c 4b 08 4b bc 7a 53 56 3c
       0.014727827 0.011694015 -0.012392114 0.013081426
000370 1f ae 5b bc 3b 28 8b bc 4c 78 12 bc cc 37 b6 bc
       -0.013408213 -0.016986957 -0.008939814 -0.022243403
000380 39 f7 e2 ba d8 fb d9 3c 91 f1 44 3c 7c 3e 05 3c
       -0.001731611 0.026609346 0.012020485 0.008132573
000390 7f 9b 59 3c b1 bc 1f 3c 47 0b 6a 3c a7 06 20 3c
       0.013281702 0.009749577 0.014284915 0.009767211
0003a0 4f 87 8a 3c 27 8a bd 3c c1 7a a4 bd 8e 84 b1 bb
       0.016910223 0.023137165 -0.08031226 -0.005417413
0003b0 df 01 b7 3c a7 e5 02 bd e4 4b 91 3d 7b a6 06 3d
       0.02233976 -0.031957295 0.07094553 0.032873612
0003c0 36 29 84 3d 8b c1 7d bc be 0e 8a bd c4 9e 91 3b
       0.06453173 -0.015488039 -0.06741093 0.004443975
0003d0 8f b4 c2 bc e0 3e 67 bc b1 bf ca bc eb 51 e1 bc
       -0.023767738 -0.014114112 -0.024749609 -0.027504882
0003e0 26 c6 eb 3b 5e ea 8f bc 9a 19 1a 3c ee 5d b9 3c
       0.007195252 -0.01756781 0.009405518 0.022627797
0003f0 72 f0 c8 bd 7f c3 28 bc f0 a6 e5 3d 73 1c 53 bc
       -0.09811486 -0.010300516 0.112134814 -0.012885201
