weights/gen_modelWeights0090/arr_33.npy (npy, 2128 bytes, 1 tensors)

array f4 [512]
000000 41 cb b2 b9 a1 c7 a9 b9 84 7a 7b 3a c3 ac d7 b8
       -0.00034102242 -0.00032382927 0.00095931464 -0.00010284178
000010 54 76 5d 3a 7a 2b ef 38 95 63 50 b8 c1 a3 f5 3a
       0.0008448113 0.00011404506 -4.9683807e-05 0.0018740819
000020 30 f7 25 3a 87 89 6a 3a 81 c8 07 b8 40 9c f8 b9
       0.00063310843 0.0008946885 -3.2373242e-05 -0.0004741866
000030 5e bd 6e 3a 6e 22 81 39 61 e5 b8 39 82 79 a3 b9
       0.00091071974 0.0002463045 0.00035266115 -0.00031180313
000040 40 9d 21 38 f0 6a 03 39 25 38 4a b7 7b d7 c2 ba
       3.853184e-05 0.00012532971 -1.205321e-05 -0.0014865244
000050 42 30 27 34 0e 4c e4 39 87 1e c1 b9 b4 9d 1f 39
       1.5570643e-07 0.00043544214 -0.00036834573 0.0001522217
000060 99 a2 fa 3a 90 7d f6 b9 c5 ee 26 3a 7b fa d0 3a
       0.0019121944 -0.00047014328 0.0006367977 0.001594379
000070 bf b0 13 ba 25 95 10 38 33 29 58 3b c1 56 05 3b
       -0.0005633942 3.4471177e-05 0.003298354 0.0020345899
000080 f6 f1 c6 37 51 17 36 3a d1 21 93 b8 e2 6a 97 39
       2.3716111e-05 0.00069462234 -7.015805e-05 0.00028880598
000090 5a e4 43 b8 d9 0f 1a 39 a0 b5 d1 39 05 de 73 3a
       -4.6704292e-05 0.00014692488 0.00039998908 0.0009302798
0000a0 6f cb 1b b7 89 ab 37 b9 8f 95 03 3b 9f 6f 3f 3a
       -9.2860855e-06 -0.00017516142 0.0020078158 0.00073027046
0000b0 d3 f1 00 3b 41 d2 f4 36 f3 7b 3c 3a 2e 5d 9f 37
       0.0019675388 7.2962434e-06 0.0007190101 1.8997667e-05
0000c0 0a 53 d1 38 22 c9 36 3a aa 2f ee b9 f6 01 40 37
       9.981364e-05 0.000697272 -0.0004543041 1.1444548e-05
0000d0 70 bb d7 37 fe 5b 63 b9 6c 40 d5 38 a4 f9 98 3a
       2.571728e-05 -0.00021682677 0.00010168631 0.0011671078
0000e0 57 ea 32 3a 74 f2 19 3b 47 2d 8d 39 d1 34 81 b9
       0.00068250805 0.002349046 0.0002692735 -0.0002464415
0000f0 ed 9b b0 38 51 8c 7b 3a 78 52 a5 b9 72 b5 b2 3a
       8.4213774e-05 0.0009595799 -0.00031532696 0.0013634397
000100 75 94 bb 3a d0 be 41 b9 cc 9b 80 39 b8 b2 b9 39
       0.0014311211 -0.00018476998 0.0002453014 0.00035419106
000110 da e7 98 3a ce a9 c8 39 90 ef 8c 39 c8 eb 51 3b
       0.0011665777 0.00038273487 0.0002688137 0.0032031406
000120 6e 28 0a 3a 45 fc 65 39 ea a7 83 39 cb 1b d2 38
       0.0005270307 0.0002193312 0.00025111373 0.00010018757
000130 3b 5d 6d b8 83 dc 08 3b ed d5 66 39 0c 7c 0f b8
       -5.659203e-05 0.0020883388 0.00022014203 -3.4209384e-05
000140 5f e0 43 3b da aa 39 3a 82 2e bd 39 d3 39 68 3a
       0.0029888374 0.0007082649 0.0003608354 0.0008858714
000150 60 a9 65 3a d3 68 8d 39 72 d0 8d 3a fe dd 53 3a
       0.00087608956 0.00026971716 0.0010819568 0.00080820906
000160 5c 2b 86 39 5b 31 03 3b e2 d3 01 3b 22 fd f2 39
       0.00025590777 0.0020018432 0.001981013 0.00046346436
000170 bd 1b c9 b8 4d cd 8c 39 dc b9 9e 39 4f 74 d6 3a
       -9.5895935e-05 0.00026855842 0.00030274584 0.0016361567
000180 16 62 0c 3a da 1a b6 3a 53 73 ac b8 1b 1d 6d 3a
       0.0005355192 0.00138935 -8.22308e-05 0.00090451696
000190 f2 01 b1 3a b7 a8 11 b8 2f a4 90 b8 44 32 39 3a
       0.0013504608 -3.4727822e-05 -6.897037e-05 0.000706468
0001a0 df d5 38 ba bd 0a 5a ba 45 2c a4 3a 82 94 17 39
       -0.0007050912 -0.000831764 0.00125254 0.00014455806
0001b0 54 5c 20 ba 99 08 d0 38 9c 51 16 3a 29 c0 8e b9
       -0.00061172736 9.919814e-05 0.00057342066 -0.0002722752
0001c0 0d f4 fc 39 35 b2 5d b8 02 54 61 ba 64 90 9f 3a
       0.00048247018 -5.2856474e-05 -0.0008595587 0.0012173769
0001d0 4f b6 9d 38 2d fb 69 b9 cb bf 8f 3a ad 45 8a 38
       7.520301e-05 -0.00022314182 0.0010967193 6.593331e-05
0001e0 43 1f 02 3a 4a 97 b1 b8 b6 26 22 38 4c 48 bf 39
       0.0004963765 -8.4681975e-05 3.8659862e-05 0.00036484224
0001f0 44 20 74 b9 73 07 51 37 6b 07 4a b9 9a 81 a2 ba
       -0.00023281673 1.2459105e-05 -0.00019266985 -0.0012398243
000200 38 69 27 38 c5 8c 62 3a c3 53 cd 3a 4f 45 c4 ba
       3.9913895e-05 0.0008642192 0.0015665222 -0.0014974269
000210 31 55 14 39 0d 69 ae b8 69 67 6b 3a 48 de fe 39
       0.00014146116 -8.316534e-05 0.0008979948 0.00048612268
000220 56 e5 83 b3 46 ab 04 37 17 70 97 3a 95 1f d2 38
       -6.141879e-08 7.907691e-06 0.0011553791 0.00010019463
000230 d6 2d 0d bb 6f e5 c5 3a b4 1c a0 b8 23 95 ff 3a
       -0.0021542213 0.0015098284 -7.634741e-05 0.0019499402
000240 5c 90 f5 b9 f4 cf e4 3a c2 fc 20 ba 90 95 07 3b
       -0.00046837598 0.0017456994 -0.00061411795 0.0020688511
000250 c3 be 02 3a 49 cd ca 3a 5e ee 13 3a af a7 e2 3a
       0.0004987532 0.0015472557 0.00056431245 0.0017292405
000260 5d c4 10 39 6c d1 4c b9 6c 00 94 3b d8 e7 66 39
       0.00013806061 -0.00019532972 0.004516652 0.00022020878
000270 ce 16 02 3b 3c 79 0b 3b 9b d5 ce 3a 9e 9f 3c b9
       0.0019850018 0.0021281978 0.0015780212 -0.00017988539
000280 38 0d 46 3a 2f ff 8d 39 6b f2 18 3a 98 35 c8 3a
       0.00075550703 0.00027083742 0.0005834463 0.0015274761
000290 79 7f 09 ba 1f 30 b0 3a 7a bd 33 ba 59 29 64 3a
       -0.000524513 0.0013442076 -0.00068565423 0.0008703671
0002a0 1c f0 9f b6 ae d3 46 3a af 6a a2 b9 8b a3 10 38
       -4.7665217e-06 0.00075846433 -0.00030978533 3.4484587e-05
0002b0 59 58 07 3a a1 fe bd 39 85 b5 34 39 1e 38 1b 3a
       0.0005163006 0.00036238602 0.00017233759 0.0005921143
0002c0 11 5d 1a 3a f7 58 38 3a e5 9e 87 b7 c8 89 80 39
       0.0005888502 0.00070323 -1.6167245e-05 0.00024516718
0002d0 e2 77 ba 38 2e af 12 3b d6 43 8e ba 5a 1e fc b8
       8.891501e-05 0.0022382247 -0.0010853957 -0.0001202195
0002e0 b7 ac 2b b9 2c f5 98 3a 03 88 98 b7 05 d6 ab 3a
       -0.00016372172 0.0011669747 -1.8183147e-05 0.0013110047
0002f0 ba af 8d 39 08 c5 83 b9 21 ee 97 b9 f3 0c d3 38
       0.00027024542 -0.00025133067 -0.00028978384 0.00010063676
000300 2e 57 3d 3a 91 56 4d 3a 09 45 3d 3a b7 05 49 b7
       0.00072227686 0.0007833029 0.0007220065 -1.1981864e-05
000310 cf d2 2a b9 9e fe b5 38 f3 df f8 b9 fa e7 a6 ba
       -0.00016290996 8.678179e-05 -0.000474691 -0.0012733929
000320 55 b4 af b4 dc b6 af b8 ec fa 20 b9 d9 b2 6b 39
       -3.27275e-07 -8.3787105e-05 -0.00015352265 0.00022477972
000330 52 f3 b9 3a 11 40 a1 39 4b 0c ac 39 d3 44 7b 38
       0.0014186895 0.00030756046 0.00032815555 5.990716e-05
000340 5d 7d 9b b9 de 85 88 3a 6f c6 9d 3a 09 10 b0 39
       -0.00029657307 0.0010415872 0.0012037287 0.00033581283
000350 b8 f9 ec b9 9e e3 89 b7 c2 9c 16 b8 e4 7b 7e 3a
       -0.00045199483 -1.6437665e-05 -3.590878e-05 0.0009707792
000360 53 18 00 bb 37 ae 03 ba b6 0c 37 3b 0b 64 73 3a
       -0.0019545748 -0.00050232135 0.002793116 0.0009284622
000370 85 b6 bb 39 09 3b ad 3a be ac 85 b7 6e 69 de 3a
       0.00035803407 0.0013216446 -1.5935275e-05 0.0016968676
000380 75 06 e6 3a 9b 73 e2 39 6b 98 94 3a 45 8b ea ba
       0.0017549532 0.00043192212 0.0011336928 -0.0017894289
000390 7a 3c 52 3a 66 9d 0e ba 9f f3 cc b6 26 75 11 3a
       0.0008019876 -0.00054403243 -6.108035e-06 0.00055487675
0003a0 bd 35 98 ba 32 de 02 ba 1f 1a e9 36 4e 6c fa b8
       -0.0011612695 -0.0004992216 6.946982e-06 -0.00011941102
0003b0 ed 22 0d 3a 18 b1 a5 b9 71 b9 51 38 51 83 7e ba
       0.00053839275 -0.00031603198 5.000219e-05 -0.0009708899
0003c0 6a ba 22 b9 73 da a6 3a 4e f8 73 3a 7b bb af b8
       -0.00015518969 0.0012729898 0.00093067146 -8.379571e-05
0003d0 39 18 b6 b9 46 51 4b 39 30 ea 1d 38 8f 7d 14 ba
       -0.00034731792 0.00019389865 3.764982e-05 -0.00056644616
0003e0 f8 39 a1 3a 1d 9c 99 b7 a5 83 fa ba c2 cf 8d ba
       0.0012300601 -1.8311717e-05 -0.001911272 -0.0010819363
0003f0 4f 06 52 38 d7 e3 42 38 04 c8 37 3a dc f0 6a 3a
       5.0073777e-05 4.6465397e-05 0.00070107006 0.00089622824
