weights/gen_modelWeights0090/arr_29.npy (npy, 2128 bytes, 1 tensors)

array f4 [512]
0.00018019413 0.0002652088 0.00010418186 2.2754642e-05 0.00046191178 -0.00067541184 -8.419567e-05 6.4297696e-05
0.00021750138 -0.0003962491 -0.00015361293 0.0008537241 -0.00027068684 0.00032119523 -9.429355e-05 -0.00012304218
0.00019474178 -0.00023540856 -0.0009265528 0.0010035322 1.311614e-05 9.459966e-05 0.00096392486 -0.0005323654
0.00031242194 0.00030825133 2.8161237e-05 2.8859853e-05 -0.00034730727 0.00015999882 0.00030360307 0.00015622893
1.4071261e-05 -0.0004945715 0.00047701033 0.00013878048 0.0008257707 -0.00042252193 -4.5260203e-05 0.00032737936
8.122587e-05 0.00021841112 0.000424225 -0.000661448 6.0399594e-07 0.00019890252 0.00074194116 0.0006962168
-0.00020959135 0.00017787931 0.0008538234 -1.8911443e-05 0.00068209844 0.00022539789 0.0002197303 -0.00018743567
-4.9570684e-05 0.0005229633 6.6953384e-05 4.1295752e-05 -0.00028600657 0.0011700755 -0.0003423197 0.00039741557
-0.0004464186 -8.95445e-05 -6.893762e-05 -7.006508e-05 0.00014256134 -0.0008240464 0.00018654826 -1.1978627e-05
0.00023534344 -8.124806e-05 4.770954e-05 0.00017654152 0.0011563891 -0.00029278776 0.00013997513 0.00024284617
-0.00013228128 3.2752367e-05 -5.8609417e-06 -9.8378834e-05 1.8906292e-07 -0.00025347152 -0.0003655112 -0.00022832987
-0.0001497928 -5.3503896e-05 -0.0007100536 5.9199192e-05 -0.000107875814 -2.4114593e-06 0.0003905111 8.272037e-05
0.00020200094 -1.24958215e-05 0.00024202159 -8.519207e-05 0.00030835412 1.4390193e-05 0.0003930782 0.0006882978
0.00014166745 0.00024280643 -0.00023988252 -0.00016026829 0.00079806015 -3.1564857e-06 1.1374403e-05 0.00030211377
2.3997165e-05 -0.0007735314 2.3332195e-05 0.00021822916 -0.000114237686 0.00072045025 0.00050467846 9.7917386e-05
-5.5398647e-05 0.0003387551 -6.4424145e-05 -9.1505266e-05 5.1064468e-05 0.00018275327 4.9215203e-05 3.758133e-05
8.846386e-05 9.250763e-05 0.0001969969 6.9925205e-05 -3.122172e-05 4.625988e-06 3.0834115e-05 -0.0003273271
-0.0001323342 0.0003495521 0.00010077678 -0.00050368387 -0.00020709005 6.150444e-05 -5.743752e-05 0.00024319619
0.00020816723 0.00026930557 1.1704098e-05 9.1718175e-05 0.0001237482 0.0010720091 8.7602464e-05 0.00033991976
0.00039916523 0.00047693332 0.0005125705 1.7632656e-05 -5.7263664e-05 -2.5347481e-05 3.6884787e-05 -1.680978e-05
-0.00020517636 7.9180056e-05 0.000387792 0.00011215689 0.00027618563 -0.0004104117 0.0008849472 3.152036e-05
-0.00017113368 0.0008849967 -3.9779177e-05 -0.00046504143 -1.4473204e-05 -0.0005909918 0.00027625987 0.00014785107
0.0005746793 0.0009881301 5.6437e-05 0.0005437434 -3.56646e-05 0.00027492188 0.00032408157 -0.00028123046
0.00055221975 -0.00039207897 -2.421717e-05 0.0005507385 -0.00021143636 0.0005043526 -0.00022875829 0.00013490897
3.8754573e-05 -0.00022757458 0.00031108962 0.00090020633 -2.5258232e-05 -2.9344088e-05 0.00033323112 -0.00040405613
-0.00012083579 0.00037227446 -3.1125786e-05 -0.0008552994 0.00036450935 -0.00034000224 5.0541217e-05 0.0003198436
-0.0007255459 -0.00010060879 0.000107085354 0.00016194556 -0.00034372733 0.00050062547 -0.00072846113 0.00094326364
-0.0008942821 0.00047747648 0.00024585097 -3.5213223e-05 0.0007040725 -0.0004773254 -0.00021120087 0.00011891955
-2.910213e-05 0.00013258851 0.00032233767 -0.00014443997 -0.00032903513 0.00077276485 1.496803e-05 0.00097511866
-0.00038499606 -5.0554977e-06 1.8603323e-05 0.00012900199 0.00015272704 7.860225e-05 0.00038787833 0.00039793912
-0.0004265249 -8.775701e-05 0.00012169589 0.00029618846 -0.00047712497 -0.00023153971 -0.00054344087 0.00096746517
0.00047357482 -0.000155906 -6.899145e-05 0.00013087857 4.68356e-05 -5.6207984e-05 0.00031990084 0.00016044012
00000000: 7ef2 3c39 b90b 8b39 367c da38 39e1 be37
00000010: c02c f239 1f0e 31ba 3592 b0b8 90d7 8638
00000020: 1511 6439 a7bf cfb9 2813 21b9 74cc 5f3a
00000030: f9ea 8db9 1866 a839 77bf c5b8 e204 01b9
00000040: 9933 4c39 01d8 76b9 e8e3 72ba f488 833a
00000050: 640d 5c37 ce63 c638 e7af 7c3a 708e 0bba
00000060: 90cc a339 cb9c a139 cc3b ec37 1018 f237
00000070: cb16 b6b9 5bc5 2739 ea2c 9f39 62d1 2339
00000080: 9b13 6c37 22a6 01ba 3e17 fa39 9a85 1139
00000090: 8978 583a ef85 ddb9 c6d5 3db8 1da4 ab39
000000a0: cf57 aa38 4a05 6539 846a de39 0665 2dba
000000b0: 4922 2235 7d90 5039 d47e 423a 5282 363a
000000c0: c0c5 5bb9 1d85 3a39 1ed3 5f3a 04a4 9eb7
000000d0: dace 323a c958 6c39 6767 6639 618a 44b9
000000e0: 1eea 4fb8 7917 093a 5369 8c38 fa34 2d38
000000f0: 27f3 95b9 385d 993a 5f79 b3b9 375c d039
00000100: 4a0d eab9 d6c9 bbb8 9a92 90b8 e7ef 92b8
00000110: 857c 1539 d104 58ba 2b9c 4339 d0f7 48b7
00000120: 86c6 7639 b863 aab8 ba1b 4838 011e 3939
00000130: fb91 973a 4f81 99b9 4ac6 1239 86a4 7e39
00000140: fcb4 0ab9 965f 0938 1ba9 c4b6 bc50 ceb8
00000150: 3801 4b34 5fe4 84b9 15a2 bfb9 d56b 6fb9
00000160: b311 1db9 5f69 60b8 e422 3aba a64c 7838
00000170: 633b e2b8 8ed4 21b6 83bd cc39 297a ad38
00000180: 37d0 5339 25a5 51b7 2dc7 7d39 25a9 b2b8
00000190: 97aa a139 696d 7137 1016 ce39 e26e 343a
000001a0: 918c 1439 db99 7e39 f988 7bb9 b10d 28b9
000001b0: e934 513a 03d4 53b6 b0d4 3e37 0665 9e39
000001c0: 854d c937 d0c6 4aba 82b9 c337 72d4 6439
000001d0: e492 efb8 99dc 3c3a 664c 043a ff58 cd38
000001e0: d85b 68b8 f19a b139 731b 87b8 84e6 bfb8
000001f0: 0e2e 5638 75a1 3f39 6c6c 4e38 a5a0 1d38
00000200: ac85 b938 a800 c238 f490 4e39 cfa4 9238
00000210: 11f4 02b8 ef38 9b36 e153 0138 1a9d abb9
00000220: 31c3 0ab9 1744 b739 1f58 d338 a709 04ba
00000230: 5026 59b9 f2fb 8038 11e9 70b8 7b02 7f39
00000240: 7747 5a39 9531 8d39 b85c 4437 d258 c038
00000250: 68c2 0139 a882 8c3a 37b7 b738 4237 b239
00000260: 0d47 d139 e80c fa39 065e 063a d7e9 9337
00000270: 642e 70b8 4da1 d4b7 bdb4 1a38 ba02 8db7
00000280: 9c24 57b9 780d a638 9050 cb39 c635 eb38
00000290: 02cd 9039 872c d7b9 cdfb 673a bb34 0438
000002a0: 5972 33b9 20ff 673a 91d8 26b8 ced0 f3b9
000002b0: f0d1 72b7 caec 1aba f9d6 9039 7808 1b39
000002c0: 13a6 163a 2584 813a c4b6 6c38 008a 0e3a
000002d0: 9396 15b8 6423 9039 7ee9 a939 1d72 93b9
000002e0: d7c2 103a f38f cdb9 fa25 cbb7 6f5f 103a
000002f0: 04b5 5db9 8836 043a d6de 6fb9 5a76 0d39
00000300: 688c 2238 16a1 6eb9 be19 a339 d3fb 6b3a
00000310: a4e1 d3b7 f327 f6b7 86b5 ae39 7fd7 d3b9
00000320: 3969 fdb8 d52d c339 0f8d 02b8 2c36 60ba
00000330: 9e1b bf39 5442 b2b9 38fc 5338 aeb0 a739
00000340: 9032 3eba effd d2b8 0393 e038 eecf 2939
00000350: 4d36 b4b9 683c 033a 33f6 3eba 5a45 773a
00000360: 416e 6aba cf55 fa39 8fe5 8039 e9b1 13b8
00000370: 8191 383a 8841 fab9 cd75 5db9 7264 f938
00000380: 5920 f4b7 7507 0b39 6eff a839 cf74 17b9
00000390: 5982 acb9 5f93 4a3a 331f 7b37 1b9f 7f3a
000003a0: 4cd9 c9b9 65a2 a9b6 550e 9c37 b544 0739
000003b0: 5a25 2039 43d7 a438 265c cb39 7ca2 d039
000003c0: 349f dfb9 300a b8b8 fc36 ff38 be49 9b39
000003d0: a126 fab9 78c9 72b9 b375 0eba 7d9d 7d3a
000003e0: 234a f839 b37a 23b9 81af 90b8 733c 0939
000003f0: 5871 4438 ddc0 6bb8 5db8 a739 d13b 2839
