weights/gen_modelWeights0090/arr_39.npy (npy, 1104 bytes, 1 tensors)

array f4 [256]
000000 08 7f 9f 3a e6 ac 16 3b d9 14 49 3b 5e ee 11 3b
       0.0012168596 0.002299124 0.0030682592 0.0022267322
000010 44 52 22 b7 9d 1e a9 ba 56 18 a1 37 ab 5c 47 3b
       -9.675106e-06 -0.00129028 1.9204028e-05 0.0030420225
000020 46 3d 87 3b 70 d5 50 3b 70 c0 ac 39 59 17 a6 3b
       0.0041271774 0.00318655 0.00032949774 0.005068701
000030 75 c6 78 3a ec 40 c7 3b d8 7a 11 bb 82 a4 20 3a
       0.00094900216 0.0060807373 -0.0022198465 0.0006128029
000040 a8 36 06 38 e2 54 17 3b 82 5f a2 39 cd b7 20 3b
       3.1998992e-05 0.0023091366 0.00030970207 0.0024523616
000050 cd 30 5c 3a c8 63 1e 35 df 44 23 3b d9 a8 d4 38
       0.0008399606 5.900479e-07 0.0024912877 0.00010140398
000060 44 e1 d8 ba 22 ae 57 3b d1 78 88 3b 37 29 4d b9
       -0.0016546627 0.0032910188 0.004164793 -0.00019565677
000070 aa 8e 10 b9 bf c6 53 39 dc e9 db 3a ff 97 85 3b
       -0.00013786057 0.00020196567 0.001677807 0.0040769572
000080 6f 4c 25 bb be ef 9d 3a 65 56 c7 38 1a 8c 10 39
       -0.002522256 0.0012049598 9.505152e-05 0.00013785102
000090 af 42 b2 3a d6 36 54 3a e2 fb 6c b8 41 1a 39 b9
       0.0013600196 0.00080953294 -5.650137e-05 -0.00017652755
0000a0 a6 4e a8 38 5e 70 96 bb 41 45 3b 3b 44 df 3a ba
       8.025514e-05 -0.004591032 0.0028575214 -0.0007128606
0000b0 b2 40 05 3a b3 6b 29 3b ab 1c 7b 3b 28 d9 99 3a
       0.0005083188 0.0025851547 0.0038316648 0.0011737691
0000c0 66 ce 2b 38 d8 54 8e 3a 99 17 03 b9 0d e6 0f 3b
       4.09618e-05 0.0010859026 -0.00012501924 0.002195719
0000d0 d5 ff b6 3a d0 b2 24 b8 1a 36 d1 3a 45 95 95 3a
       0.0013961742 -3.926718e-05 0.0015961558 0.0011412284
0000e0 a4 23 81 3a cf 65 66 39 4f 9b 8f 3a 8d 9f b7 b9
       0.0009852541 0.00021972436 0.001095632 -0.00035023355
0000f0 4e 12 6f 3b 26 ea b9 ba d5 6a 55 3b f0 ff c4 39
       0.0036479416 -0.0014184162 0.0032564898 0.00037574722
000100 60 70 34 bb 94 57 83 bb 93 2c 30 3a 43 b3 55 39
       -0.00275328 -0.004008243 0.0006720509 0.00020380043
000110 f1 06 99 3a a1 f6 48 3b e0 9b 33 3a 4e 4c aa b9
       0.0011675042 0.003066458 0.0006851535 -0.00032481778
000120 f4 23 74 3b b4 df 66 39 21 08 c2 3a 45 b5 80 38
       0.0037252875 0.00022017845 0.0014803448 6.13728e-05
000130 dc 56 86 b9 b6 0a 27 39 1e da 9b b8 1d 9b eb b5
       -0.00025623187 0.00015930351 -7.4316034e-05 -1.7554008e-06
000140 3f 05 b1 b8 4c 15 86 3a a2 8e 21 3a 28 20 b9 3a
       -8.440995e-05 0.0010229736 0.00061629165 0.0014123963
000150 87 31 71 b9 ca 11 24 b5 ae 6e 95 3b 6a 83 9a ba
       -0.00023002001 -6.112065e-07 0.004560313 -0.0011788432
000160 9d 56 a1 37 c8 b5 2e 3b 4d 3a b9 39 45 f6 ae 3a
       1.9233028e-05 0.0026658643 0.00035329387 0.001334854
000170 76 bd 2a b8 5b 48 ca 39 b6 5d 0b 39 00 0f c4 3b
       -4.0707608e-05 0.0003858235 0.00013290983 0.0059832335
000180 69 09 09 3b fa f9 f9 ba 22 7a 77 38 bf 93 a6 3b
       0.002091015 -0.0019071691 5.9003134e-05 0.0050835307
000190 fc 8c 28 3b 0f 6a 87 3b 06 44 4e 3b c5 46 0e 37
       0.00257188 0.004132516 0.003147365 8.480337e-06
0001a0 12 96 51 39 60 b3 14 3a 9d 6e 67 3b ff 66 e5 b8
       0.00019987699 0.0005672481 0.0035313733 -0.000109387554
0001b0 26 c1 90 38 9d f8 80 b8 31 3b 43 3b 88 c8 83 3b
       6.902432e-05 -6.1498235e-05 0.002978992 0.004021708
0001c0 48 94 81 b9 7f 68 2e b9 c3 a0 06 39 18 47 14 b7
       -0.00024715276 -0.00016632861 0.00012839124 -8.83804e-06
0001d0 87 e9 8f 3a de c6 27 b9 26 cf b2 3a de 20 8a 3b
       0.0010979631 -0.00016000445 0.0013642057 0.004215344
0001e0 75 88 dd ba 1a 9c 4d 3b 47 d9 1d ba 20 7b a6 b6
       -0.0016901629 0.0031373561 -0.00060214516 -4.961519e-06
0001f0 17 c9 4e b9 36 c7 cb 39 e2 0a 89 3a 70 12 ab 3b
       -0.00019720603 0.000388676 0.0010455514 0.005220704
000200 52 ce f2 39 73 84 1a b9 3a 73 dc ba 26 a1 6d 3b
       0.00046311558 -0.00014735926 -0.0016819008 0.0036259382
000210 41 62 26 ba 98 99 1a b9 7e d4 43 3b cf 11 f9 3a
       -0.00063470384 -0.00014743803 0.0029881294 0.00190025
000220 25 6a e3 3a 94 a6 ae 3b 49 05 5f 3b 12 cc 56 37
       0.0017350359 0.0053299163 0.003403025 1.2802908e-05
000230 00 44 e0 b8 56 a4 6f 3b f3 65 b4 ba fd 02 80 b9
       -0.00010693818 0.0036566458 -0.0013763293 -0.0002441629
000240 54 57 69 3a 2e d8 f9 b8 28 ec c1 3a 91 84 99 b9
       0.00089012575 -0.00011913512 0.0014795111 -0.00029281204
000250 f3 c9 a7 3a d7 3a 10 b5 46 d9 03 b7 53 06 bb b9
       0.0012801274 -5.3729804e-07 -7.858796e-06 -0.0003567213
000260 4d f1 a6 b9 80 8e e0 38 9e c7 b9 39 8b 85 fb 3a
       -0.0003184177 0.00010707695 0.00035434676 0.0019189579
000270 0b 02 fc b9 fc ce 96 3b fd 32 94 3a 7c dc 17 3b
       -0.00048066708 0.004602311 0.00113067 0.002317219
000280 77 cd 21 3b 25 0c 2f ba 85 68 9b 3a d5 e9 94 b9
       0.0024689117 -0.000667753 0.0011856711 -0.00028402978
000290 54 5c a7 3a 62 ad 42 3a 79 7a f1 b6 74 8b f4 b8
       0.0012768605 0.0007426349 -7.1966174e-06 -0.00011660802
0002a0 a0 5d c6 ba 0f 4e be 3a d3 f5 c2 b9 8f c5 bf 3a
       -0.0015134104 0.0014519113 -0.00037185717 0.0014631021
0002b0 4a d4 f7 b7 0f 37 bc ba 1b f6 58 3a e5 34 6b 3b
       -2.954355e-05 -0.001435967 0.00082764187 0.0035889682
0002c0 40 6d d4 3a 3b fa 82 b7 28 7f 78 38 20 e3 9a bb
       0.0016206875 -1.561373e-05 5.924623e-05 -0.0047267824
0002d0 69 ce 68 39 b9 46 b0 3a a3 f5 07 b8 a9 98 d4 3a
       0.00022202138 0.0013448811 -3.2415275e-05 0.0016219813
0002e0 aa 4e 80 36 91 5a 87 b9 5f 26 b9 3b 2e b5 2d bb
       3.823855e-06 -0.00025816684 0.005650326 -0.0026505697
0002f0 86 88 33 bb 4e 69 33 ba 62 c8 2c 39 89 dc c9 ba
       -0.0027394607 -0.0006844 0.00016477847 -0.0015400808
000300 f8 00 c4 39 8d 88 9d b8 bd d1 26 3b 84 22 36 b9
       0.00037384755 -7.511778e-05 0.0025454604 -0.0001736973
000310 0f 2f 09 3a 1d c5 00 ba 52 57 85 3b e2 3d 51 3b
       0.00052331475 -0.00049121847 0.0040692473 0.0031927754
000320 91 8d b8 39 5a 4c 4a 3b 3f b9 45 ba 0c dd 16 3b
       0.0003520069 0.0030868263 -0.00075425574 0.0023019938
000330 50 7a 1f b7 c5 c5 fe b8 88 64 4f 3b 24 3d 1f 3b
       -9.505617e-06 -0.00012148501 0.0031645615 0.0024297917
000340 b8 7b d9 ba 0a 56 bc 3a 52 c3 27 3b dd 4c 62 3b
       -0.0016592657 0.0014368903 0.0025598598 0.0034530677
000350 dc ac b3 3a b6 e6 43 bb b4 e4 92 b9 f2 9f 24 3b
       0.0013708132 -0.0029892153 -0.00028017687 0.002511975
000360 07 48 e8 3b ce 0a 41 3a 7b 42 7a 39 c6 c8 28 3a
       0.0070886645 0.0007363976 0.00023866624 0.0006438609
000370 88 05 98 3b 71 83 08 3b 61 c2 3f 3b cb 2b 83 3b
       0.0046393313 0.0020830298 0.0029260146 0.0040030233
000380 b4 45 4e ba de e5 4b 3b c2 51 2e b8 6f 72 07 3a
       -0.0007868663 0.0031112353 -4.1560976e-05 0.0005166893
000390 bf 28 93 3b 92 5a 56 b5 ee 71 23 ba 73 ff cf 3a
       0.0044909413 -7.985301e-07 -0.00062349334 0.0015868976
0003a0 d5 29 b4 38 f3 64 89 39 b9 7d 53 b9 ef 65 89 b9
       8.590861e-05 0.0002620589 -0.00020169363 -0.00026206623
0003b0 a9 44 a4 3b be b3 1f 3b 71 2a 7a ba 9f bc da 3b
       0.0050130677 0.002436861 -0.00095430674 0.0066753174
0003c0 bf f6 6b 3b 25 60 d8 3a d1 51 19 37 c0 da f7 38
       0.0036005226 0.0016508145 9.13856e-06 0.00011818623
0003d0 65 6f 24 3b 20 d8 af 3b 58 37 4e b9 dc 0e 18 3b
       0.002509081 0.0053663403 -0.00019666308 0.0023202216
0003e0 66 b5 aa 3b f3 f9 12 3b e2 b2 59 3a b5 7d 2a 3a
       0.0052096127 0.0022426813 0.00083045487 0.0006503717
0003f0 20 34 4d ba ce 76 da 3a 8d 3f 2c 39 b0 51 68 3a
       -0.00078278966 0.0016667487 0.00016426873 0.000886227
