weights/gen_modelWeights0090/arr_25.npy (npy, 2128 bytes, 1 tensors)

array f4 [512]
00000000: efbc 0a3e 376d dfbe 1592 f43e 3323 423e
00000010: 4e7b d63d c118 38be 699f a5bb e972 873c
00000020: 0958 293d 3068 e73d dd0f b4bd 7a5b 41bd
00000030: c485 463e bcb3 eebd 11d3 4fbc 5b6e af3e
00000040: 8a3e c53c ec86 903e d5da 43be a73e 45bd
00000050: f3eb 913d 26e8 67bb aca7 34bd c721 1e3e
00000060: e589 313e c88a 97be d845 963e a50f c63c
00000070: 82dc 563e 5a18 953d 3da3 433e a7f7 0c3e
00000080: 4a90 2f3e c498 1c3e c7b5 bd3e cc18 23be
00000090: 3ac9 ba3e 4143 523c b199 76bd 03c9 94bd
000000a0: 5831 e03b 808a 0ebe 32fa e33e 12b9 76bd
000000b0: d442 f4bd 66e0 043e 0dd3 0c3d da1a cd3d
000000c0: a05d 7bbc ba65 363e 0f52 963d 557f 8cbd
000000d0: 3e58 ee3d 0bf9 26be 2546 b2bb c4e4 153f
000000e0: 81ec bd3e adec df3c 8512 473e 2391 2a3e
000000f0: 0646 153c 1449 4ebe e818 b03d 1874 ca3d
00000100: 4f12 cebd 808a 32bc fa28 5bba e9c1 863c
00000110: 04c5 69be 2596 193e de75 ed3c 00b6 aa3d
00000120: 5a13 a03d 5899 0cbe 0865 d5bc 319a 3bbd
00000130: 6093 333f 2ddd 253e 98de aa3c ba23 0ebd
00000140: 7867 d83d bea4 0e3f f7ef 133e 10a6 b43d
00000150: 5f8d a93d 19c8 c1bc 76f1 cf3e 0922 c23c
00000160: fa9e 953e 36bb f43e 709a 1ebe 6701 b53d
00000170: 6e70 a23d 00fd 2c3e 4d00 10be ec81 f2bb
00000180: 4140 283b 1805 1a3e 90c2 83bc 499f 7e3e
00000190: d0ee 5d3e 4d89 0a3f a639 ad3d fdd1 30bd
000001a0: a2ee 323e 613d 033d 1ef4 843d 66b0 42be
000001b0: 4126 813e e8f5 613e 2f26 273e deeb 7c3d
000001c0: 361a ee3c 9994 f03f 0e41 56bd 119e 603b
000001d0: daea dc3d 237a 143f 8c63 113e b1ac 1a3f
000001e0: 2321 97bd 12ba 1d3e 7c59 b53d 0403 e23e
000001f0: a111 303e 7a58 53bc 96af 213d bf25 253e
00000200: f033 813d bea3 4b3b 0581 6ebd 5a1c 17bc
00000210: e0c1 99bd 4c45 d63e 230e 263c 285c 323d
00000220: 9c9f ed3d 32bb 183e a1dc 273e f6f6 833e
00000230: e2dc 853a 31c9 5739 3673 e33c 7209 533e
00000240: abf0 57be dc25 08bd 3a34 823e 04be 80bd
00000250: 9766 243e e35b 583e a29d 323b 3fd8 183c
00000260: 8e6c 603c 3c35 b33d c4c5 013e 0fc4 1541
00000270: 459b 5e3e abb7 ae3d 296b 093e 34c7 463d
00000280: 663e ce3d a6cc 15be 9934 79be 2c0d 223f
00000290: bea8 7d3d 87ff f73c c6c0 1e3f c668 febd
000002a0: fad4 123e af33 263e 54d1 733d f914 163e
000002b0: a309 e93e 7fb0 793e 38c7 873d d59d 473e
000002c0: 78d9 6c3d 0bd4 3c3b 7e34 9f3c 53fa 963e
000002d0: a864 6d3d 58bd a6bd fca5 f53c 684e 18bc
000002e0: e9e8 61bd 72d1 863e c801 f03e d404 643e
000002f0: a2c4 18bd 42fe b03c fe1d f43c cc68 48bc
00000300: 463b a03d a8b5 db3d 21b2 053d 52af 02be
00000310: e812 f03d d89e 24bc 63f6 c03d 7e2f 5f3e
00000320: af50 9c3c f8c1 14be abe4 9b3e 5e03 493c
00000330: dd14 aebd 0ea7 5d3d 77e9 29bd 1ae0 0a3c
00000340: 6728 463a 8a15 a13c 6ddc 383c 9300 0dbd
00000350: 9448 903c ad37 5b3e c0a9 bd3d f022 8c3e
00000360: 7c69 a2bc 4af1 65bd f3ab 5d3e 6d11 d9bd
00000370: f47e 8a3c 5530 afbd ccea be3b 77ca c2bc
00000380: 078e 833d 1597 f13e 6174 9f3e 37ae 7e3c
00000390: 9991 47bd d868 3b3f 4515 05be 1f52 e83d
000003a0: cd87 0a3e 32c8 dc3d 5464 473d 9582 1b3b
000003b0: 9cf2 123c 703f 9c3e 3406 cf3d 3dc8 133d
000003c0: e94f a53d d78b 563e bd95 af3d c716 0a3d
000003d0: c775 3e3e 5725 1f3d fa59 a43d 33e7 16bd
000003e0: 1ff8 cf3e be59 c93d a8bc d23d 2479 983b
000003f0: 4efa 5d3b d25b 04bc d63f 763f 842c 693e
0.13548635 -0.43638012 0.47767702 0.1895874 0.10472737 -0.17978193 -0.0050544036 0.016534286
0.041343722 0.11299169 -0.08792088 -0.04720638 0.19386965 -0.11655375 -0.0126845995 0.34263882
0.024077673 0.28227937 -0.19126447 -0.048155453 0.07125082 -0.0035386174 -0.044105217 0.15442573
0.17337759 -0.2959807 0.29350162 0.024177382 0.20982555 0.07280035 0.19105239 0.13766347
0.17144886 0.1529265 0.37052748 -0.15927428 0.3648165 0.012833417 -0.060205165 -0.072649024
0.0068418197 -0.13920021 0.4452682 -0.06023509 -0.11926809 0.12976226 0.03438096 0.10014887
-0.015342146 0.17812243 0.0733987 -0.06860224 0.116379246 -0.1630594 -0.005440491 0.58552194
0.370945 0.027334535 0.19440658 0.16656928 0.009110933 -0.20145065 0.085985005 0.098854244
-0.10062086 -0.010897279 -0.0008360293 0.016449885 -0.22829062 0.14998682 0.028986868 0.08335495
0.07816191 -0.13730371 -0.026049152 -0.045801345 0.7014675 0.16197653 0.020858094 -0.03470204
0.1056661 0.55720127 0.14447008 0.088207364 0.082789175 -0.023654984 0.40613908 0.02369787
0.29222852 0.4779908 -0.154886 0.08838158 0.079316005 0.16893387 -0.14062615 -0.007400742
0.0025673064 0.15041006 -0.016083986 0.2486545 0.21673131 0.54115754 0.08458261 -0.04316901
0.17473844 0.032040957 0.06491874 -0.19012603 0.25224498 0.22066462 0.1632316 0.061748378
0.029065233 1.8795348 -0.052308135 0.0034273902 0.10786982 0.57998866 0.1419813 0.60419756
-0.07379367 0.15403011 0.088549584 0.44142926 0.17194225 -0.012899512 0.039474092 0.1612768
0.063087344 0.003107294 -0.05822851 -0.009223068 -0.07507682 0.41849744 0.010135206 0.04354492
0.11602709 0.1491516 0.16392757 0.25774354 0.0010212923 0.00020578947 0.027764898 0.20609072
-0.21087901 -0.03323923 0.2543047 -0.062862426 0.1605476 0.21128802 0.00272546 0.009328901
0.013697756 0.08750388 0.12673098 9.360366 0.21738918 0.08531126 0.13419785 0.04852982
0.10070495 -0.14628848 -0.2433647 0.6330135 0.061928503 0.030273212 0.620129 -0.12422328
0.14339057 0.16230653 0.059525803 0.14656438 0.45515165 0.24383734 0.06629795 0.19493802
0.05782458 0.002881291 0.01943421 0.29487857 0.05795732 -0.08141583 0.029986374 -0.009296037
-0.05515376 0.2633167 0.4687636 0.22267467 -0.0372969 0.021605615 0.029799458 -0.012232017
0.078238055 0.107280076 0.03264058 -0.12762192 0.11722356 -0.010047637 0.094219945 0.2179546
0.019081442 -0.14527118 0.30447897 0.012268869 -0.08500073 0.054114394 -0.041482415 0.008476282
0.0007559121 0.019663591 0.011283022 -0.034424376 0.017612733 0.21407957 0.09260893 0.27370405
-0.01982569 -0.056138314 0.21647625 -0.10599027 0.01690624 -0.085541405 0.00582633 -0.023778183
0.06423574 0.4718558 0.31143478 0.015544466 -0.048722837 0.73206854 -0.12996395 0.11343788
0.13528366 0.10780372 0.048679665 0.0023728956 0.008968975 0.3051715 0.10108605 0.036079634
0.08071882 0.20951782 0.08573482 0.03371313 0.18599616 0.03885397 0.08024974 -0.036841583
0.4061899 0.0983157 0.102898896 0.004653113 0.0033871117 -0.008078532 0.96191156 0.22770888
