weights/gen_modelWeights0090/arr_37.npy (npy, 2128 bytes, 1 tensors)

array f4 [512]
0	0x39d83010	0.0004123454
1	0x3b0a0519	0.0021060167
2	0xb850bf44	-4.9769194e-05
3	0xb7ebff5f	-2.81331e-05
4	0x39f737dc	0.0004715313
5	0x3a84df16	0.0010137286
6	0x3aa6effb	0.0012736315
7	0xb70bef6b	-8.3407895e-06
8	0x3ad2a6df	0.001607146
9	0x3a0e5e59	0.0005430929
10	0xb91da92f	-0.00015035713
11	0x394b8286	0.00019408212
12	0xb7f2b695	-2.893367e-05
13	0xb8ba05ff	-8.870288e-05
14	0x399260a6	0.000279193
15	0x3aa2a75a	0.0012409494
16	0xb6b9635e	-5.5249975e-06
17	0x3a8799ae	0.0010345483
18	0x3a5676fc	0.0008181182
19	0x3b268b1a	0.00254125
20	0xb98cdf67	-0.0002686933
21	0x3b253b09	0.002521219
22	0x3a0f2d64	0.0005461781
23	0x3acfe206	0.0015860207
24	0x3b522c84	0.003206999
25	0x38c0b6fc	9.189357e-05
26	0xba073c9d	-0.00051588734
27	0x3aaf4465	0.0013371824
28	0x3b2b7652	0.0026163054
29	0x3ac1df4f	0.0014791283
30	0xba6b61ff	-0.0008979141
31	0xb741b939	-1.1546822e-05
32	0x3aeb97b9	0.0017974294
33	0xbb411cc9	-0.002946662
34	0x397d6dbd	0.00024168841
35	0xb8963c16	-7.163749e-05
36	0x39d61ac7	0.0004083721
37	0xb83e98aa	-4.544171e-05
38	0xba5580ce	-0.00081444986
39	0xbb0526d6	-0.0020317337
40	0x3a18379a	0.0005806625
41	0x3953162d	0.00020130789
42	0xba92bbdf	-0.0011194906
43	0xba43bbb9	-0.00074666325
44	0x3b3d2832	0.002886307
45	0xba590916	-0.0008279247
46	0x3b224c60	0.0024764761
47	0x3b51532f	0.003194045
48	0x332d90ed	4.041151e-08
49	0x3ac26f28	0.0014834153
50	0xb8016db0	-3.085815e-05
51	0xba78b544	-0.000948746
52	0xb8872bc0	-6.445451e-05
53	0x3a5b6dc6	0.00083705445
54	0x3b00159c	0.001954413
55	0x3b1799cc	0.0023132442
56	0x3a82418f	0.0009937751
57	0x3b1f64ca	0.002432155
58	0x3b197d26	0.0023420542
59	0x3ada908d	0.001667516
60	0x3ae30978	0.0017321547
61	0xbb3a7064	-0.0028448338
62	0x3b32281f	0.0027184559
63	0xba4ed44f	-0.0007889913
64	0x3ac878a2	0.001529474
65	0x383c5dee	4.491017e-05
66	0xba1c7f0f	-0.0005969861
67	0x3b2f58b4	0.0026755752
68	0x3b69a3c1	0.0035650583
69	0x3a8ca3e1	0.0010729992
70	0x3ab11ec5	0.0013513198
71	0xba49f391	-0.0007703836
72	0x3aaebee2	0.0013332034
73	0x3ade545c	0.0016962397
74	0x3a05f92c	0.0005110677
75	0x3821a270	3.8536673e-05
76	0x3af4832b	0.0018654814
77	0x3a8ea307	0.0010882326
78	0x3aa63bf1	0.0012682659
79	0x399fc6e6	0.00030475034
80	0x3a95adf1	0.0011419636
81	0x3b32b73c	0.002726986
82	0xbaead040	-0.0017914847
83	0x3a112424	0.00055366964
84	0xba6b76ee	-0.00089822605
85	0x386b8161	5.614886e-05
86	0x35baf363	1.3928915e-06
87	0x3b86e734	0.004116917
88	0xb93a30e5	-0.00017756557
89	0x3acb7b17	0.0015524355
90	0x3698e467	4.5565425e-06
91	0x385d1b90	5.2716176e-05
92	0xbb0efbfb	-0.0021817673
93	0x3b5de5ea	0.0033858963
94	0xbab07e28	-0.0013465332
95	0xbb122646	-0.0022300645
96	0xb8aef32b	-8.34226e-05
97	0x396b87f1	0.00022461989
98	0x3b05dc7f	0.0020425615
99	0x396ff545	0.00022884186
100	0xb89ca446	-7.469258e-05
101	0xb75f4cc9	-1.3309714e-05
102	0x38ef516f	0.00011411576
103	0x3a86778f	0.001025902
104	0x3b28118b	0.0025645222
105	0x390536c1	0.00012704266
106	0xb906fe5b	-0.0001287399
107	0xb905d6e0	-0.00012763916
108	0x37e7ebb0	2.7647096e-05
109	0xb9fcc964	-0.00048215233
110	0xba59bfb7	-0.0008306461
111	0xb8f21999	-0.00011544227
112	0x3b1ae881	0.0023637118
113	0x39a80ce3	0.00032053058
114	0x3b40c939	0.0029416813
115	0x380cd7bd	3.3579523e-05
116	0xb8d67762	-0.00010226552
117	0x3adb6f16	0.001674148
118	0x3abb597a	0.0014293634
119	0xba27dc0d	-0.00064033346
120	0xb9fbeb3f	-0.00048049723
121	0x3a4ecf63	0.00078891794
122	0x3b53c947	0.0032316016
123	0x3915da0d	0.00014290978
124	0x3b06cec3	0.0020570017
125	0x3a373777	0.0006989161
126	0x3a5fc070	0.00085354503
127	0x3998e9ca	0.00029165886
128	0xbaabf15d	-0.0013118197
129	0x390ca24c	0.000134119
130	0x3ae9b967	0.0017831743
131	0x3b44b5a3	0.003001549
132	0xb98b630c	-0.00026585942
133	0xb946a46c	-0.00018944003
134	0x386a9d6d	5.593656e-05
135	0xb9bdbfb9	-0.00036191734
136	0x39bcef6f	0.00036036546
137	0xb8978d66	-7.2265786e-05
138	0x38e1208e	0.000107349
139	0x3a3400c0	0.0006866567
140	0x39ed2682	0.00045232853
141	0x35b0da1c	1.31765e-06
142	0x3aa1af7c	0.0012335624
143	0x3adf5b15	0.0017040694
144	0x3b042170	0.0020161532
145	0xb7be9ca1	-2.2722701e-05
146	0x3a5ace3d	0.0008346772
147	0xbab8c8ef	-0.0014097969
148	0xba877172	-0.0010333492
149	0xb7527891	-1.2545047e-05
150	0xbb085c1b	-0.0020806852
151	0xb9b10071	-0.000337604
152	0xb83808f4	-4.3877357e-05
153	0xb885b1e9	-6.3750726e-05
154	0x3a1516c5	0.0005687292
155	0x3b6c1b4f	0.003602702
156	0xba0346b1	-0.0005007787
157	0x3b032113	0.0020008727
158	0x37177f04	9.0298745e-06
159	0x39fd66b8	0.00048332452
160	0xb64a4e68	-3.0145984e-06
161	0x38b54033	8.6427106e-05
162	0xbaff168d	-0.0019461677
163	0x3a989a46	0.0011642657
164	0xb992a44f	-0.0002796971
165	0x3ae7eaea	0.0017693911
166	0xb7c75f11	-2.3766917e-05
167	0x3a7f4083	0.0009737091
168	0x3b6c05ef	0.003601428
169	0x3abc36d7	0.0014359605
170	0xb9a11430	-0.00030723354
171	0x3a089dbf	0.0005211494
172	0xb997c6ea	-0.00028949167
173	0x3b252689	0.002519997
174	0x39a84b04	0.00032099348
175	0x39c09c98	0.00036737765
176	0xb761ef24	-1.3466724e-05
177	0x3b64b055	0.003489514
178	0x3b167eb5	0.0022963707
179	0xb90cde37	-0.00013434222
180	0x3af9b1dd	0.00190502
181	0x3affef20	0.0019526221
182	0xb948978c	-0.00019129942
183	0xbad908fc	-0.0016558464
184	0x39ade477	0.0003316735
185	0x3adf64fe	0.0017043648
186	0x39e6b5f4	0.00044004584
187	0xbaaf53e8	-0.0013376446
188	0x3b2b18b5	0.0026107256
189	0x396f4a96	0.00022820602
190	0xb7eafbdb	-2.8012253e-05
191	0x3ac0649a	0.0014678419
192	0x39b0bc46	0.0003370961
193	0x3b86db89	0.004115526
194	0x3ad6c068	0.0016384246
195	0xb7981e4a	-1.8133916e-05
196	0x3b06a34d	0.0020544112
197	0x39a75900	0.00031919032
198	0x3b37ce17	0.0028046423
199	0x38b85246	8.789128e-05
200	0xb9638bea	-0.00021700529
201	0x3ada968d	0.0016676948
202	0xb89e9c21	-7.5631084e-05
203	0x3ab5b07d	0.0013861802
204	0x3acc8ae6	0.001560536
205	0x3b6429e5	0.003481501
206	0x3a418767	0.0007382542
207	0x3b1a9231	0.0023585672
208	0xbb71c9cf	-0.003689397
209	0xba64551b	-0.00087101915
210	0x3b2f4ac3	0.0026747442
211	0x3b1d2428	0.002397785
212	0xb953c3d8	-0.00020195486
213	0x3b8171fb	0.003950355
214	0x3996024b	0.00028611938
215	0xbb074087	-0.0020637827
216	0x3a5f145d	0.0008509809
217	0x3b47ef13	0.003050749
218	0x3aac226c	0.0013132817
219	0x3a8beeda	0.0010676042
220	0xb9e039d4	-0.00042767695
221	0xbae8774b	-0.0017735747
222	0xbb0da7ab	-0.002161483
223	0x3ad762f0	0.0016432684
224	0xb9b975a5	-0.00035373602
225	0xba843e8e	-0.0010089444
226	0xb8a3a0b3	-7.802378e-05
227	0x3afefc98	0.0019453941
228	0x3908e7fe	0.00013056395
229	0xb89fa033	-7.61155e-05
230	0xbaacda0a	-0.0013187539
231	0x3b45c9d1	0.0030180106
232	0x3b3259eb	0.002721424
233	0x3b20bf7a	0.0024528191
234	0xb766adfe	-1.3749579e-05
235	0xb582137f	-9.691429e-07
236	0xba28fe66	-0.00064466
237	0x382ae521	4.074455e-05
238	0x37635148	1.3549179e-05
239	0x3897f709	7.246255e-05
240	0x3ab62777	0.001389726
241	0x3ae2a0ba	0.0017290332
242	0x378f1bfb	1.7059958e-05
243	0x3a1e2f07	0.00060342293
244	0xb9a29414	-0.00031009375
245	0x3adf01f3	0.0017014131
246	0x3adf2376	0.0017024118
247	0x38cb473f	9.693065e-05
248	0x379dcc89	1.8811103e-05
249	0xb9c2f38f	-0.0003718403
250	0x3add9231	0.001690453
251	0xb826432e	-3.964005e-05
252	0x38cd4942	9.788807e-05
253	0xba2d8183	-0.0006618725
254	0xbb08de6b	-0.0020884525
255	0x3ab8eb26	0.0014108166
