weights/gen_modelWeights0090/arr_41.npy (npy, 1104 bytes, 1 tensors)

array f4 [256]
0	0x3a9713ff	0.0011526345
1	0xb947a146	-0.00019038198
2	0xb90f6c5a	-0.00013677907
3	0x3adb800c	0.0016746535
4	0xb954c7f3	-0.00020292382
5	0x3a62e245	0.00086549326
6	0xb8993788	-7.305952e-05
7	0x3b10b558	0.0022080746
8	0xba6dfc2c	-0.0009078409
9	0x3b99caf2	0.0046933824
10	0x3b6acc39	0.0035827293
11	0x3b700c6e	0.0036628502
12	0x3acc6f70	0.0015597176
13	0xb9644ed7	-0.00021773145
14	0x38e4272f	0.00010879186
15	0xba94c9cb	-0.0011351643
16	0xba3d29ea	-0.00072160235
17	0x39242a12	0.00015655931
18	0x3a0c33d5	0.00053483
19	0xb9be3dea	-0.00036285754
20	0xb8757334	-5.8519843e-05
21	0x3a3df33b	0.0007246022
22	0xba05b359	-0.0005100272
23	0xbaf0df09	-0.0018377017
24	0xba1a091e	-0.00058759924
25	0x3bb06dce	0.0053841835
26	0x3a7ac4a5	0.00095660455
27	0x372db45f	1.03535995e-05
28	0x3adf362e	0.0017029697
29	0x3b91d235	0.0044501075
30	0x397379f0	0.00023219711
31	0x3a919e7a	0.0011109852
32	0xbaac1488	-0.0013128677
33	0x374ca16b	1.2196931e-05
34	0x3b27e02f	0.0025615802
35	0x39552cc3	0.00020329938
36	0x3a480cf1	0.0007631323
37	0x3b192fb4	0.002337438
38	0x3b0b12ae	0.002122085
39	0x3bc7d941	0.0060988967
40	0xba6b8dd0	-0.000898567
41	0x3b13618e	0.0022488567
42	0xba929479	-0.0011183164
43	0x36c30122	5.8115847e-06
44	0xb6bc6df0	-5.615635e-06
45	0xbb19a882	-0.0023446386
46	0x3aa4bf00	0.001256913
47	0xb96e897f	-0.0002274867
48	0x3a1accc4	0.0005905146
49	0xb9abad5c	-0.00032744824
50	0x3a379dbf	0.0007004402
51	0x39765701	0.000234928
52	0xb9ef5f32	-0.00045656558
53	0x3b163398	0.0022918936
54	0x3bd3d81f	0.0064649726
55	0xba92b76f	-0.0011193583
56	0xb9965b59	-0.0002867829
57	0x3b827923	0.003981726
58	0xb7bd1501	-2.2540336e-05
59	0x3bddbf8c	0.006767219
60	0x3bcc4da7	0.006234843
61	0xba2f28e2	-0.0006681812
62	0xbb123df3	-0.0022314757
63	0x3611025b	2.1608055e-06
64	0x3b1c6a93	0.0023867234
65	0x3bfc61d1	0.0077020903
66	0xba13dde6	-0.00056406704
67	0x3a9c3a70	0.0011919271
68	0x3b9979e7	0.0046837213
69	0x39c49d48	0.00037501217
70	0xbaef0b43	-0.0018237609
71	0xb9aeb727	-0.00033324325
72	0x39eb7d71	0.00044916154
73	0x3a3e54fe	0.00072605896
74	0x3b42e8b0	0.0029740743
75	0xbae358ab	-0.0017345151
76	0xbb16a901	-0.0022988918
77	0xb929f67b	-0.00016208917
78	0x3abb11d2	0.0014272279
79	0x3c03f9a5	0.008055125
80	0x37b68ea6	2.1762517e-05
81	0x3a7dc2c3	0.0009680206
82	0x3b2f1003	0.0026712425
83	0x3b87bc08	0.004142288
84	0x393d6aac	0.00018064183
85	0x3b02157d	0.0019849234
86	0x3b520487	0.0032046156
87	0x3b4a77a4	0.0030894065
88	0xbaa180c3	-0.0012321699
89	0x3aca92e0	0.0015455149
90	0xb92e1d72	-0.00016604902
91	0xba591fd1	-0.0008282634
92	0x3a9f9f56	0.0012178223
93	0x3ba2367b	0.0049503422
94	0xb79405f4	-1.7645747e-05
95	0x3c11fc39	0.008910232
96	0xb93f65cf	-0.00018253106
97	0xbac9ceab	-0.0015396675
98	0x3b5b0405	0.0033419144
99	0xba063831	-0.00051200675
100	0x3b9d7a0a	0.004805808
101	0xb8f36e6d	-0.00011607711
102	0xbaf82b45	-0.0018933794
103	0x3b89c8af	0.0042048316
104	0x3ab016b5	0.0013434502
105	0x3ac76620	0.0015212931
106	0xb9a2f815	-0.00031083883
107	0x3b71d29f	0.0036899222
108	0x3a60b1bf	0.0008571408
109	0xba0c9d84	-0.0005364048
110	0xb9103d79	-0.0001375581
111	0xb816ee73	-3.598486e-05
112	0xbaa00631	-0.0012208876
113	0x393ec01b	0.00018191377
114	0xb9dccf2f	-0.00042116034
115	0x3aaf435d	0.0013371516
116	0x3a2c0117	0.00065614417
117	0x3b0d4b4e	0.0021559778
118	0xbb25fba7	-0.0025326998
119	0x3aa3dff2	0.0012502654
120	0x3a742498	0.0009313314
121	0xbac86f02	-0.0015291872
122	0x39ef3b9e	0.0004563005
123	0x3b20d2a9	0.0024539626
124	0xbadd24a3	-0.001687188
125	0x3a0bc8b2	0.0005332335
126	0x3b61a78a	0.0034432136
127	0x39513a66	0.00019953548
128	0x3b369c15	0.0027864028
129	0x3b3d60c6	0.0028896793
130	0x3aba32fb	0.0014205867
131	0xb9f80b41	-0.0004731063
132	0xb76dc6c9	-1.4172584e-05
133	0x3b4f4454	0.003162642
134	0xba3e1905	-0.0007251653
135	0x3b82e110	0.0039941147
136	0xbb093c1b	-0.0020940367
137	0x3b985e53	0.004649916
138	0x389e584a	7.550472e-05
139	0x3aba0fdd	0.0014195401
140	0x3ac46da0	0.0014986284
141	0xb9a0eef2	-0.00030695606
142	0x3b328f05	0.002724589
143	0xbaa85f02	-0.0012845697
144	0x3b1275a3	0.002234795
145	0x3b72d19a	0.0037051202
146	0x3bb4eb35	0.005521203
147	0x3ada5494	0.0016657286
148	0x3aff9fa8	0.0019502537
149	0x3bc82d10	0.0061088875
150	0x3b3b1fa9	0.0028552806
151	0x3be36731	0.0069397916
152	0x38b457d9	8.599432e-05
153	0x3b5f22cf	0.0034047847
154	0x3b467b35	0.003028584
155	0x38495729	4.800331e-05
156	0x3af2ff1d	0.0018539164
157	0xba35b17c	-0.0006931049
158	0x3a832ee5	0.0010008482
159	0x3a0c4a99	0.0005351692
160	0x3ba0797a	0.0048972936
161	0x3b4da7b8	0.0031380486
162	0x39116516	0.00013865935
163	0x3a516d5c	0.0007989013
164	0x3aaf4b70	0.0013373923
165	0xb91b8a79	-0.00014833537
166	0xbba8cf51	-0.005151667
167	0xba4010f8	-0.0007326747
168	0xb8fae3e2	-0.000119633754
169	0x3bd223e0	0.006412968
170	0x3b7a2f4e	0.0038175168
171	0xbb80ea85	-0.003934207
172	0x3a7fae43	0.0009753445
173	0xb87fda06	-6.0999788e-05
174	0xb9912a54	-0.00027688092
175	0xba20c280	-0.00061324984
176	0xba2eca86	-0.00066677516
177	0x3a430ebb	0.00074408547
178	0x37bf3f8c	2.2798566e-05
179	0x39880ee9	0.0002595105
180	0xb89592fe	-7.132253e-05
181	0x382275b2	3.8733422e-05
182	0x3ad66b9c	0.0016358974
183	0xb96ab42c	-0.00022383098
184	0x389ad656	7.3832154e-05
185	0x3b911938	0.004428055
186	0x3b36a195	0.0027867306
187	0x3783f7d0	1.5731814e-05
188	0xb95c20a9	-0.00020993002
189	0x3b21837a	0.0024645017
190	0xb7a45a98	-1.959251e-05
191	0x3b3a5d22	0.002843686
192	0x3b7f867b	0.0038990069
193	0x3a81dff4	0.0009908662
194	0x3a6d021e	0.0009041148
195	0xbac45191	-0.0014977922
196	0xba06e7c6	-0.0005146231
197	0x3b7fada6	0.0039013415
198	0x3802a014	3.11435e-05
199	0xb98c0678	-0.000267077
200	0x3aa9a1ed	0.0012941934
201	0x39a7b484	0.00031987217
202	0x3b91c272	0.0044482285
203	0x3be86c12	0.007092961
204	0x3202de90	7.617601e-09
205	0x39751df8	0.00023376185
206	0xbb7109a2	-0.0036779423
207	0x3b3c61ff	0.0028744934
208	0x3b1f1933	0.0024276495
209	0xbaa34b88	-0.0012458423
210	0x3a22d4e9	0.00062115357
211	0x391411b8	0.0001412098
212	0x3bb6777c	0.005568443
213	0x3bc039c6	0.005866262
214	0x3ac17b90	0.0014761556
215	0xb9060487	-0.00012780922
216	0x3ae39748	0.0017363811
217	0x39c74dec	0.00038014294
218	0x3b0f3dbf	0.0021856872
219	0x38b04c94	8.406598e-05
220	0x36602553	3.3400327e-06
221	0x3ba90e99	0.005159211
222	0x3af0eef9	0.0018381766
223	0xb81926ea	-3.6514284e-05
224	0x3b176b69	0.0023104793
225	0x38a0b5b2	7.663238e-05
226	0x371cd896	9.348752e-06
227	0xbb0cf21d	-0.0021506615
228	0x38b49c75	8.612211e-05
229	0xb6ace0a9	-5.1521533e-06
230	0x3b4fbd68	0.0031698588
231	0xb81c3ae5	-3.7248148e-05
232	0x3b814511	0.003945001
233	0x350d9802	5.2747794e-07
234	0x39ef1ca5	0.00045606974
235	0xba24407b	-0.0006265712
236	0xba971136	-0.0011525515
237	0x3b028284	0.001991422
238	0xb968ed62	-0.00022213676
239	0x3af5c148	0.0018749619
240	0x3be287b4	0.0069131497
241	0xb98e7784	-0.00027173397
242	0x39aec1a1	0.0003333213
243	0x3b761319	0.0037548004
244	0x3aaf4667	0.0013372422
245	0xb9ab5c0c	-0.00032684242
246	0x3acb373f	0.0015504136
247	0x39f0e9be	0.0004595052
248	0xb8e512ac	-0.00010923049
249	0x3b56fd16	0.003280466
250	0x3a0186df	0.0004941057
251	0x39a63dfa	0.00031708163
252	0x38fe2fe3	0.000121205834
253	0xb99d97a8	-0.00030058366
254	0xb8e58abb	-0.000109454115
255	0x3b041e9e	0.002015985
