weights/gen_modelWeights0090/arr_48.npy (npy, 294992 bytes, 1 tensors)

array f4 [64, 128, 3, 3]
0	0xbc9d7aad	-0.019223535
1	0xb9cd048a	-0.0003910403
2	0x3cf07d42	0.029356603
3	0xbc0e9488	-0.008702405
4	0x3bb1dff1	0.005428307
5	0x3cbeb10d	0.023277784
6	0x3c4aa42a	0.012368241
7	0x3b954fb2	0.0045566196
8	0xbbb2b7ea	-0.005454053
9	0x3b39bc96	0.0028341166
10	0x3b8e8091	0.0043488224
11	0xbcb2faef	-0.02184817
12	0xbb90ff9c	-0.0044250023
13	0x3c6b097e	0.014345525
14	0xbbb7298f	-0.005589671
15	0xbccdf1c5	-0.025139699
16	0x3cd71360	0.026254356
17	0x3baed3ba	0.0053352984
18	0xbcd435a9	-0.025904493
19	0xbcbe6769	-0.02324267
20	0xbce8de0d	-0.028426195
21	0x3b34e9cb	0.0027605172
22	0x3c3a25e1	0.01136157
23	0xbcc2269b	-0.02370005
24	0x3c7aa53f	0.015298187
25	0xbc26bfc7	-0.010177559
26	0x3caf55f3	0.021403288
27	0xbcc48f28	-0.023994043
28	0xbb2fd42d	-0.0026829347
29	0xbbc86a71	-0.0061162044
30	0x3a961c6c	0.0011452562
31	0x3ccd42aa	0.025056202
32	0x3cef8dc2	0.0292424
33	0x3c85aecd	0.016318703
34	0xbc6f52b3	-0.014607119
35	0x3c2ce39e	0.010552315
36	0xbce94d60	-0.028479278
37	0xbcf0effb	-0.029411307
38	0x3b9dfd34	0.004821444
39	0xba262d3e	-0.0006339139
40	0xbce4b5e3	-0.027918762
41	0x3cce9cec	0.02522131
42	0x3cedc107	0.029022707
43	0x3c905c2c	0.017622076
44	0x3c4afa7b	0.012388821
45	0xbccaf99d	-0.024777228
46	0x3bdb5002	0.0066928873
47	0xbc3fbd18	-0.011702798
48	0xbc753d33	-0.014968204
49	0xbc099cb8	-0.008399181
50	0xbcb12202	-0.021622662
51	0xbb2e9354	-0.0026638107
52	0xbc94ed5c	-0.018179588
53	0xbb525704	-0.0032095322
54	0x3c85da9a	0.016339589
55	0x3c58d4da	0.0132343415
56	0xbcf1e12d	-0.029526317
57	0x3babc710	0.005242236
58	0x3be0d471	0.0068612625
59	0x3cc8cbb6	0.0245112
60	0xbc8e8704	-0.017398365
61	0xbb37f4f1	-0.002806958
62	0x3ac2756a	0.0014836018
63	0x3b8a36c8	0.004217956
64	0xbc34a3e5	-0.011025404
65	0xbb71d1df	-0.0036898775
66	0xbb2f429f	-0.002674259
67	0xbc83787c	-0.016048662
68	0x3c8bc6f3	0.01706264
69	0xbc147459	-0.009060943
70	0xbbeab382	-0.0071625123
71	0x3ce5c748	0.028049126
72	0xbc031de5	-0.008002733
73	0xbcc045f0	-0.023470849
74	0x3cb8db93	0.022565639
75	0xbce17c2f	-0.027525036
76	0x3bb06bde	0.0053839525
77	0xbb00ed04	-0.0019672522
78	0x3beb053f	0.0071722562
79	0x3cc1f140	0.023674607
80	0xbc9431f4	-0.018090226
81	0x3ba13080	0.0049191117
82	0x3bce3076	0.006292398
83	0x3bdf7a7f	0.0068200226
84	0x3b88fa21	0.0041802083
85	0x3c547d41	0.012969316
86	0x3988bbcf	0.0002607987
87	0x3c9d9bb1	0.019239279
88	0x3bc50655	0.0060127177
89	0xbbe6b8fc	-0.007041095
90	0x3be44399	0.006966066
91	0xbcc38b8b	-0.02387025
92	0xbbc0df13	-0.0058859675
93	0xbb192990	-0.002337072
94	0x3c598dad	0.013278407
95	0xbb69f97f	-0.003570169
96	0x3c7f023d	0.0155644985
97	0x3ce49cb6	0.027906757
98	0xbcbaf98d	-0.022824073
99	0xbc440cd7	-0.011965952
100	0xbc372b66	-0.011179781
101	0xbbd4c633	-0.0064933538
102	0x3cb62886	0.02223612
103	0xbc97be49	-0.018523352
104	0x3cb192cd	0.021676445
105	0xbc214bed	-0.009844762
106	0x3b8acf10	0.0042361096
107	0xbcf8e8cb	-0.030384442
108	0xbaa02016	-0.0012216594
109	0xbcf03d74	-0.029326178
110	0x39b822cb	0.00035121138
111	0xbce72507	-0.028215898
112	0x3cb0d05f	0.021583734
113	0xbcf49bfc	-0.029859535
114	0xbcd9e089	-0.026596325
115	0x3c455903	0.012045148
116	0xbcaa517f	-0.020790813
117	0xbc9b59b4	-0.018963672
118	0x3bf2437d	0.007393299
119	0x3c405170	0.011738166
120	0x3cb3d8a9	0.021953898
121	0xbc3c3b90	-0.01148881
122	0x3c945006	0.018104564
123	0xbbbae9c9	-0.005704139
124	0x3b1cf8a7	0.002395192
125	0xbc8bba0d	-0.01705649
126	0x3c4af2f5	0.012387027
127	0xbb3a7716	-0.0028452328
128	0x3cf47c56	0.029844444
129	0x3cd82d0a	0.026388664
130	0x37d724e5	2.5647178e-05
131	0x3c2e2854	0.010629732
132	0x3ccd4dc9	0.025061505
133	0x3caed72c	0.021342836
134	0xbc927cea	-0.01788183
135	0xbce5a65f	-0.028033433
136	0xbc0279c0	-0.007963598
137	0xbceab51e	-0.028650817
138	0xba20c395	-0.00061326596
139	0x3c9a3e46	0.018828522
140	0x3ca1efa6	0.019767594
141	0xbcd431da	-0.025902677
142	0xbc35395b	-0.011061038
143	0x3ce26c55	0.027639547
144	0x3ca1539e	0.019693192
145	0x3ca46e57	0.020072145
146	0xbcec1b57	-0.02882163
147	0xbc3a4ee9	-0.011371353
148	0x3c02faa3	0.007994327
149	0x3bb8e104	0.0056420583
150	0xbcf0f14b	-0.029411932
151	0xbc98f410	-0.018671066
152	0x3ce24921	0.027622761
153	0x3c0b896d	0.008516652
154	0x3c9ad976	0.018902522
155	0xb9c5df92	-0.0003774134
156	0x3a245776	0.0006269136
157	0xbcb1bac5	-0.021695504
158	0xbaf1a5ca	-0.001843625
159	0xbc88373b	-0.016627898
160	0xbcaac471	-0.020845624
161	0xbc14e176	-0.009086957
162	0xbcf6f91c	-0.030148081
163	0xbc26b093	-0.0101739345
164	0x3c73083b	0.014833505
165	0x3b0a9b1a	0.0021149577
166	0x3bb221ab	0.0054361424
167	0xbc69bef2	-0.014266716
168	0x3be9e45e	0.007137819
169	0xbc544c3b	-0.012957628
170	0xbbeb4921	-0.0071803485
171	0x3c31aca6	0.010844385
172	0xbc6366bd	-0.013879475
173	0x3c7b605c	0.015342798
174	0xbb265353	-0.0025379255
175	0xbcbb0fcf	-0.022834687
176	0x3c4416fa	0.011968369
177	0x3c7a383b	0.015272195
178	0xbc764427	-0.015030897
179	0xbc5583fc	-0.013031956
180	0x3c1e749c	0.0096713565
181	0xbc7cd56d	-0.015431744
182	0x3c4a9daf	0.012366696
183	0xbc9dbe82	-0.01925588
184	0xbc57b3cf	-0.013165428
185	0xbcd5a2ef	-0.02607867
186	0x3c60a9a7	0.013712323
187	0xbcc652e0	-0.02420944
188	0xbcac13ae	-0.021005478
189	0xbcd0cc43	-0.025488025
190	0xbb71ed97	-0.0036915296
191	0x3bc57c2b	0.006026765
192	0xb96c02e1	-0.00022507786
193	0x3c191f89	0.0093458975
194	0xbccc721e	-0.024956759
195	0x3ce21594	0.02759818
196	0x3c625393	0.013813871
197	0xbccfd6a6	-0.025370907
198	0xbb804259	-0.0039141593
199	0xbbec3e83	-0.0072096004
200	0xbc9448f8	-0.0181012
201	0x3cd815cc	0.026377581
202	0xbc6e320f	-0.014538302
203	0x3ca15d01	0.019697668
204	0xbb8226a0	-0.0039718896
205	0x3a99e8c4	0.0011742343
206	0xbb7f8735	-0.0038990502
207	0x3c4a1d53	0.012336093
208	0xbc31f6b3	-0.01086204
209	0xbc9216a2	-0.017833058
210	0x3ce1ab6f	0.027547566
211	0xbcc14b0c	-0.023595355
212	0x3c9fd177	0.01950906
213	0xbccd8bf0	-0.025091141
214	0xbad3a8ea	-0.0016148363
215	0x3cb0327d	0.02150845
216	0x3c66939a	0.014073277
217	0x3c805ec7	0.015670193
218	0xbc027e40	-0.007964671
219	0x3c075004	0.008258823
220	0x3be29bce	0.006915546
221	0x3cc6cb46	0.02426685
222	0xbbf86809	-0.0075807613
223	0x3c2bdb19	0.010489249
224	0x3bb8dc04	0.0056414623
225	0xbce6bb4b	-0.02816548
226	0xbaf23a42	-0.0018480497
227	0x3b1c6784	0.002386541
228	0xbb72a827	-0.0037026496
229	0x3cbde648	0.023181096
230	0x3c2d9e8b	0.010596882
231	0x3c15075e	0.009095995
232	0x3cd97bbd	0.02654826
233	0xbb8b2c37	-0.004247214
234	0xbbabb0b6	-0.0052395714
235	0xb948de00	-0.00019156188
236	0xbc8b43dc	-0.017000131
237	0x3c9b9226	0.018990587
238	0xbcdb9fb9	-0.02680956
239	0x3cc312a8	0.023812607
240	0x3b01d548	0.0019810963
241	0x3c8677ed	0.016414607
242	0x3c303e10	0.010756984
243	0xbc2cff01	-0.010558845
244	0x3c873b6a	0.016507823
245	0x3caa2ccd	0.020773316
246	0x3cb58623	0.022158688
247	0xbcb2d23a	-0.02182876
248	0x3c42a12f	0.0118792495
249	0xbcc02acf	-0.023457913
250	0x3c1669e0	0.009180516
251	0x3cee32ab	0.029076895
252	0xbc2e8c45	-0.01065356
253	0xbced8d4d	-0.028998042
254	0xbc939f3e	-0.018020269
255	0x3cb2e66e	0.021838393
