weights/gen_modelWeights0090/arr_00.npy (npy, 6992 bytes, 1 tensors)

array f4 [64, 3, 3, 3]
000000 91 e3 db 3e 11 37 bf 3e be 54 7b bd a3 ae 8c 3e
       0.42947057 0.373467 -0.061360113 0.27476987
000010 bc 6f 1e 3d b3 04 bc be be 63 6b bd 97 45 86 be
       0.038680777 -0.36722335 -0.05746817 -0.26224968
000020 e2 3f b3 be ab e5 0c 3f 73 51 e1 3e 3f ae a6 bd
       -0.35009676 0.55037946 0.44007453 -0.081387036
000030 b6 04 b1 3e f5 6d 26 3d 53 31 e8 be 2a 2b 70 bd
       0.34573907 0.040632207 -0.4535013 -0.058634914
000040 89 4d a9 be e1 55 f8 be 94 c4 f5 3e 20 2d d1 3e
       -0.33066967 -0.4850302 0.4800154 0.4085474
000050 08 6b 85 bd e0 f6 9e 3e ff a0 4d 3d 46 88 ce be
       -0.06514555 0.31047726 0.050202366 -0.40338343
000060 d4 5e 50 bd 57 09 92 be c6 47 d6 be 48 2d f0 3d
       -0.050871685 -0.2852275 -0.41851634 0.11727387
000070 bf f3 25 3e 5e f3 0a 3e 1b e9 17 3e 53 27 4f 3e
       0.16206263 0.135694 0.14835016 0.20229845
000080 a6 91 25 3e d4 72 04 3e ae b0 2f 3e 1d 0a 0e 3e
       0.16168842 0.12934428 0.17157242 0.13871045
000090 29 07 ab 3c e3 e8 41 3d 81 6f 2b 3d 40 5b fe 3c
       0.020877438 0.04734124 0.041854385 0.03104937
0000a0 82 c7 86 3d 80 78 3d 3d 99 c1 01 3d b4 17 60 3d
       0.06581022 0.046257496 0.03167877 0.054710105
0000b0 4d 57 2d 3d 66 d7 30 be cc 76 2e be 54 0e 1e be
       0.042319585 -0.17269668 -0.17037505 -0.15435153
0000c0 9b 1a 40 be 52 d5 35 be e8 95 32 be 9a fc 29 be
       -0.18760149 -0.17757156 -0.17439997 -0.16600266
0000d0 af aa 2a be 67 d1 20 be 2c 51 0b 3d 28 f4 df 3a
       -0.16666673 -0.1570488 0.03401296 0.0017086314
0000e0 28 f1 ec bd f1 6f 25 3e 0f 2b 20 3e a6 30 b8 bd
       -0.115694344 0.16155984 0.15641426 -0.08993654
0000f0 32 67 53 3c 2c 67 64 38 14 59 00 be fd 67 ca 3d
       0.012903022 5.4455522e-05 -0.1253398 0.098831154
000100 e0 75 52 3d 47 69 d0 bd 50 87 76 3e 50 99 61 3e
       0.051381946 -0.1017633 0.24075055 0.2203114
000110 fe b0 88 bd 4e 90 9b 3d 6d 64 47 3d 44 88 e5 bd
       -0.066743836 0.07595883 0.048679758 -0.11207631
000120 1e d6 19 3d 72 a0 a2 bb da 59 0d be f8 97 2a 3e
       0.037557714 -0.004962974 -0.13803807 0.16659534
000130 13 d1 1a 3e d9 f8 e0 bd 30 06 80 3c ec 87 02 bc
       0.15118818 -0.10984964 0.01562795 -0.007966977
000140 58 b6 18 be 72 5c b5 3e 41 ad 8e 3e 82 7b 9a 3e
       -0.14913309 0.35422093 0.27866557 0.30172354
000150 dc 4b c8 3d 2b 88 b9 be 12 bd 3c bd 58 77 7e ba
       0.09780094 -0.362367 -0.04607875 -0.00097071147
000160 c0 6c ce be 97 57 16 be b5 c2 df 3e 9b 3f a5 3e
       -0.40317345 -0.1468185 0.43703237 0.3227509
000170 11 b8 b3 3e 04 1f c6 3d 9f 6d d9 be 8b 2d b6 bd
       0.3510137 0.096738845 -0.42466447 -0.088954054
000180 19 38 45 bd 5e f2 03 bf 46 c0 70 be 02 4b d1 3e
       -0.048149202 -0.515417 -0.23510846 0.4087754
000190 fa 04 a1 3e a6 63 b0 3e 43 18 cb 3d 98 f1 c9 be
       0.3144911 0.34451026 0.09916737 -0.39442134
0001a0 80 03 7d bd 6e 9f e0 bc 2a bb ef be a0 7a 45 be
       -0.061770916 -0.027419772 -0.46822482 -0.19285059
0001b0 cb 52 b1 bd 97 6c 43 3e c6 76 2c 3e da f1 3e be
       -0.0865837 0.19084392 0.16842183 -0.18646947
0001c0 69 50 34 3e f2 f7 1d 3e c0 63 75 be 5a ff 10 be
       0.17608799 0.15426615 -0.23963833 -0.14159909
0001d0 29 44 d2 bd cd f9 e0 bd 01 c2 75 3e b8 3f 74 3e
       -0.10266907 -0.10985146 0.23999788 0.23852432
0001e0 c8 9c 6f be 24 ce 52 3e 71 67 57 3e e0 7c ac be
       -0.23399651 0.20586449 0.21035554 -0.33689022
0001f0 b9 72 35 be cd 5a e0 bd 49 01 a8 bd 8c 7e 80 3e
       -0.17719544 -0.10954819 -0.0820337 0.25096548
000200 e0 21 6c 3e 15 c8 39 be 47 a6 79 3e a9 c0 69 3e
       0.23059797 -0.18142731 0.24379836 0.228274
000210 2a 49 8e be ec fe f0 bd 8f 88 8b bd 02 32 6b 3e
       -0.27790195 -0.117673725 -0.06813156 0.22968295
000220 4d 26 75 3e 7f 03 6e 3e 82 b8 80 3e 99 0b 89 3e
       0.23940392 0.23243521 0.25140768 0.2676666
000230 f9 f3 72 3e 86 8d 66 3e 0a 08 85 3e 14 bf 61 3e
       0.2372588 0.22514924 0.25982696 0.22045547
000240 7c fe 44 be cd 01 65 be c3 de 3f be 90 65 57 be
       -0.19237703 -0.22363968 -0.1873732 -0.21034837
000250 62 c2 71 be b5 f9 62 be 89 43 45 be 0c 2a 4a be
       -0.23609307 -0.22165568 -0.19264044 -0.19742602
000260 2e ef 46 be 0d c2 45 bd 72 3b b0 bd 09 01 32 bd
       -0.19427177 -0.048280764 -0.08605088 -0.04345802
000270 ae b8 92 bd 69 80 d3 bd 63 d4 a8 bd f1 df 3b bd
       -0.07164131 -0.10327227 -0.082436346 -0.045867864
000280 ff 4e 66 bd 5f b2 3c bd 6f df 88 3d 02 86 e5 bd
       -0.05622768 -0.046068545 0.066832416 -0.112072006
000290 d9 82 2a be b5 c0 16 3e 16 bf 57 bd c4 5b 1f be
       -0.16651477 0.1472195 -0.052672468 -0.1556235
0002a0 4b ac 1b 3e 55 2e c9 3d 30 6c f2 3b 6b 7e c8 3d
       0.15202443 0.0982329 0.007398151 0.09789737
0002b0 20 99 00 be 64 28 56 be 17 8f 4d 3e 54 a6 30 bd
       -0.12558413 -0.20913845 0.20074116 -0.043127373
0002c0 50 12 38 be aa 73 6a 3e 56 e3 10 3e dc 8f a6 3c
       -0.17975736 0.22895685 0.14149222 0.02033227
0002d0 ee 62 86 3d 0b 7d 16 be ee fe 58 be d9 3f 1f 3e
       0.06561838 -0.14696138 -0.21190998 0.155517
0002e0 a2 35 9b bd c3 1c 44 be 50 47 3c 3e 98 c8 d5 3d
       -0.07578589 -0.19151597 0.18386579 0.10438651
0002f0 50 35 85 3b 6f 52 29 3d 02 c0 ee 3d a6 30 d3 3d
       0.0040651932 0.04133838 0.11657716 0.10312013
000300 7e b1 59 be 34 a1 18 be 4e ac 1c 3d b7 55 5a be
       -0.21259114 -0.14905244 0.03825026 -0.2132176
000310 c4 20 3e be 77 4b d6 ba 3e 83 a2 3d a8 ea 59 3e
       -0.18567187 -0.0016349395 0.07935189 0.2128092
000320 9d 5a 70 3e 7d e3 6e be 84 b2 db bd 6e 11 09 3e
       0.23472066 -0.23328967 -0.107274085 0.13385555
000330 16 9a 90 be 8b a2 4b be cb 1a 2c 3d 8f a8 f1 3d
       -0.28242558 -0.19886224 0.04201774 0.11799728
000340 8c b6 82 3e 2c dc 86 3e b3 12 2c be 4a d1 0f bd
       0.25529897 0.26339853 -0.16804008 -0.035111703
000350 81 5e 3e 3e f6 8f 62 be bc a7 03 be d3 2c bf 3d
       0.18590738 -0.22125229 -0.12856954 0.093347214
000360 ef 64 05 3e 4c 52 c4 3d d8 65 01 3e c3 10 e4 3d
       0.13026784 0.095860094 0.12636507 0.111360095
000370 af 23 9e 3d 2f df ca 3d b9 ce d9 3d ac 4e e8 3d
       0.0772165 0.0990585 0.10635132 0.113431305
000380 50 61 c1 3d 0d e4 8c be 6e 16 a3 be bd 9a 8c be
       0.09442389 -0.2751774 -0.3185305 -0.27461806
000390 35 1b 96 be fb cc ab be fc ca 99 be 41 33 90 be
       -0.29317632 -0.33554825 -0.30037677 -0.28164104
0003a0 88 9e 8f be 3a 90 93 be 30 38 28 3e c0 59 2d 3e
       -0.28050637 -0.28820974 0.16427684 0.16928768
0003b0 88 58 2d 3e 3d 49 49 3e 3f 7c 51 3e d9 d8 45 3e
       0.16928303 0.19656844 0.20457552 0.19321002
0003c0 04 df 2f 3e 38 2f 61 3e dc 17 2d 3e 00 cd 06 3d
       0.17174917 0.21990669 0.16903633 0.032910347
0003d0 f9 b6 57 bd 5f 49 82 3c 50 9f 1c 3e cd a5 c8 3d
       -0.05266473 0.015904127 0.15295148 0.09797249
0003e0 2f bb 18 3e f9 32 6d 3e 24 6c 78 3e e8 4a 6a 3e
       0.14915155 0.23163976 0.24260002 0.22880137
0003f0 a6 be 11 be 2f 96 80 be 17 d1 24 be 79 2b 80 bc
       -0.14232883 -0.2511458 -0.16095386 -0.01564573
